src/sentiment-classification/results/modelo_mlp_1_camadas.pt (torch, 382047 bytes, 4 tensors)

model.0.weight f4 [128, 736]
0	0xbde61eb6	-0.112363264
1	0xbd39a257	-0.045320835
2	0x3c9edca1	0.019392313
3	0xbd4b9148	-0.049699098
4	0xbd883052	-0.06649841
5	0x3c87f7b4	0.016597606
6	0x3d839851	0.064255364
7	0x3dec0472	0.115242854
8	0x3d980dc5	0.07424501
9	0x3c88705d	0.016655141
10	0x3d482b2a	0.04886929
11	0xbbf60cd4	-0.0075088535
12	0x3dc6faaf	0.09715783
13	0x3b614030	0.0034370534
14	0xbd897f14	-0.06713691
15	0xbc3b7e37	-0.011443666
16	0xbd45b952	-0.04827244
17	0xbdef8431	-0.116951354
18	0xbdb42e8a	-0.08797939
19	0xbda0bdab	-0.07848676
20	0xbd5c3df6	-0.053770028
21	0x3d62b202	0.055345543
22	0xbc85ac75	-0.016317585
23	0xbd48f704	-0.049063697
24	0xbd19ae68	-0.037519842
25	0x3c677d9c	0.014129069
26	0xbd32e459	-0.0436748
27	0xbd8de311	-0.06928075
28	0xbdbcbea3	-0.092160486
29	0x3e0bbb09	0.13645567
30	0x3caa05a2	0.020754639
31	0xbe04c78d	-0.12966748
32	0xbd93e745	-0.072218455
33	0x3d825264	0.06363371
34	0xbdbaad74	-0.09115115
35	0xbe059ef1	-0.13048913
36	0xbc4ffbd7	-0.012694321
37	0xbdd18980	-0.10231304
38	0x3d57927f	0.052629944
39	0xbd82a2c5	-0.06378702
40	0xbd1eadd0	-0.03873998
41	0x3c57ea28	0.013178386
42	0xbb2b0836	-0.0026097423
43	0x3df0bf9c	0.117552966
44	0x3cc1ce86	0.023658048
45	0xbe178073	-0.14795093
46	0xbd063abe	-0.032770865
47	0xbca8b86e	-0.020595755
48	0x3c0e9c90	0.00870432
49	0xbcf6ec1e	-0.030141886
50	0x3dc1e7c2	0.094680324
51	0xbd994c99	-0.07485313
52	0x3daa5e97	0.08318823
53	0x3d4e0204	0.05029489
54	0xbd0981d0	-0.033571064
55	0xbd8ea985	-0.06965927
56	0x3dd4b7ea	0.10386641
57	0xbcfee2dd	-0.031114036
58	0x3d8b1f7b	0.06793114
59	0xbcb81b7e	-0.022474047
60	0xbce06fed	-0.02739712
61	0xbd6b2840	-0.057411432
62	0x3d8a3a57	0.06749409
63	0xbd9ff652	-0.07810654
64	0x3ca8b647	0.02059473
65	0xbd80ecd0	-0.062951684
66	0xbccb2cd4	-0.02480165
67	0xbd9949c1	-0.074847706
68	0xbdab21d8	-0.083560646
69	0x3d99a95e	0.07503007
70	0xbd475c03	-0.048671734
71	0xbd175412	-0.03694541
72	0x3db81b38	0.089895666
73	0x3da45817	0.08024614
74	0x3dd820d3	0.10553136
75	0x3ca7ada9	0.02046855
76	0xbc51d5f8	-0.012807362
77	0x3ca34b18	0.019933268
78	0xbddf83f4	-0.1091384
79	0xbde2d225	-0.11075238
80	0xbc244566	-0.0100263115
81	0xbcd0489e	-0.025425252
82	0xbde67fd9	-0.11254854
83	0xbd1443a8	-0.036197335
84	0x3e3c49b7	0.18387495
85	0xbd465647	-0.048422124
86	0xbcf6b75c	-0.03011673
87	0x3dd4069e	0.10352825
88	0xbd9eb9da	-0.07750292
89	0x3ce740b1	0.02822909
90	0x3db80500	0.08985329
91	0x3a7f79cd	0.0009745628
92	0xbde24072	-0.11047448
93	0x3d948875	0.072525896
94	0xbd4ad2ec	-0.049517557
95	0x3d1c09f5	0.038095433
96	0x3deba6d5	0.1150643
97	0x3dbcc095	0.092164196
98	0x3e183930	0.14865565
99	0x3d0e0f06	0.034682296
100	0x3de24e09	0.1105004
101	0x3d82de30	0.06390035
102	0x3d91e766	0.07124214
103	0x3d87b4e6	0.066263005
104	0x3da0e083	0.07855322
105	0x3c88ad70	0.016684264
106	0x3d92e241	0.07172061
107	0x3cdb40f0	0.026764363
108	0x3d330474	0.04370542
109	0xbd8ae5e1	-0.06782127
110	0xbdbaccdb	-0.09121104
111	0xbc962699	-0.018328952
112	0xbdc6db1a	-0.09709759
113	0xbcf857f0	-0.03031537
114	0x3defc8ca	0.11708219
115	0x3d66f66a	0.056387343
116	0xbd0f01f4	-0.034913972
117	0x3d92af0c	0.07162294
118	0x3d9a1f22	0.07525469
119	0xbcdd15ac	-0.026987873
120	0x3da3f915	0.08006493
121	0x3d9291a7	0.07156687
122	0x3da6aff8	0.08139032
123	0xbd815d08	-0.063165724
124	0x3dc5f84e	0.09666501
125	0xbd11fbd1	-0.03564054
126	0x3dd0d46c	0.10196766
127	0x3bec1b98	0.007205438
128	0xbd134a17	-0.03595933
129	0x3ce6d54f	0.028177885
130	0x3d850866	0.064957425
131	0x3d965ee9	0.073423214
132	0xbe17ad14	-0.14812118
133	0xbd491f9c	-0.04910241
134	0x3de1c06c	0.1102303
135	0x3b111310	0.0022136606
136	0xbd4a3411	-0.04936606
137	0x3d458635	0.048223693
138	0xbd931d86	-0.071833655
139	0xbdc8fd34	-0.0981392
140	0xbddca59a	-0.107737735
141	0xbe002ed6	-0.12517866
142	0x3d9052fd	0.07047079
143	0xbd0372a7	-0.032091763
144	0xbcc03adc	-0.023465566
145	0x3dd94412	0.106086865
146	0x3c5ddb34	0.013541032
147	0x3c08e016	0.0083542075
148	0xbd8bd4d5	-0.06827704
149	0xbdddf3e8	-0.10837537
150	0x3d413126	0.047166012
151	0xbd99a171	-0.07501496
152	0xbdb2cc18	-0.08730334
153	0x3c96f423	0.01842696
154	0x3caeb591	0.021326812
155	0xbd12293a	-0.035683848
156	0xbbed2c48	-0.0072379448
157	0xbdd616de	-0.1045358
158	0xbd64a037	-0.055816855
159	0xbbe55920	-0.00699915
160	0xbd150856	-0.036384903
161	0xbabaa2a0	-0.001423914
162	0x3dbba89c	0.09163019
163	0x3cf9de80	0.030501604
164	0xbd48c071	-0.04901165
165	0xbd7a186a	-0.06105844
166	0x3d697f6a	0.057006277
167	0x3db67ff5	0.089111246
168	0xbc8b7dfa	-0.017027844
169	0x3dacbf4b	0.08434924
170	0x3dae3dc5	0.08507875
171	0xbcba315c	-0.022728615
172	0xbd58b21f	-0.052904245
173	0x3d98d8d6	0.07463233
174	0xbd2cae9a	-0.0421587
175	0x3d5c2d68	0.05375424
176	0xbd4e01a5	-0.050294537
177	0x3d92f9c0	0.07176542
178	0x3d940531	0.07227553
179	0x3d08f032	0.033432193
180	0x3c058706	0.008149868
181	0x3dd06012	0.10174574
182	0xbcd7be5e	-0.026335891
183	0x3db67b1c	0.089102
184	0x3c7361bd	0.014854846
185	0x3d863878	0.06553739
186	0x3d9b4d39	0.075830884
187	0x3d84c0a0	0.06482053
188	0xbb39b030	-0.0028333776
189	0x3bf44776	0.007454808
190	0x3c6c5717	0.014425061
191	0x3c5a5dbc	0.013328012
192	0x3dab2d1c	0.08358213
193	0xbc127ac4	-0.008940402
194	0x3e113950	0.14182019
195	0x3cda74b8	0.026666984
196	0xbd151391	-0.036395613
197	0x3d7e0a99	0.062021825
198	0x3de5067f	0.1118288
199	0xbc3de14e	-0.011589361
200	0xbd5a2255	-0.053255398
201	0x3cf10890	0.029423028
202	0xbc8e3297	-0.017358107
203	0xbda09668	-0.07841188
204	0x3cbdbf54	0.023162521
205	0x3b744623	0.003727325
206	0xbd1d467a	-0.03839729
207	0xbd4bc1bd	-0.04974531
208	0x3da074f8	0.0783481
209	0x3dda8e8d	0.10671721
210	0x3d7cc9b4	0.061715797
211	0xbdd4f9a8	-0.10399181
212	0xbda3504d	-0.079743005
213	0xbdac47c7	-0.08412128
214	0xbd4828a1	-0.04886687
215	0xbcac5449	-0.021036284
216	0xbcce0835	-0.025150398
217	0x3e09f380	0.13471794
218	0xbdc32365	-0.09528235
219	0x3d842980	0.06453228
220	0x3d75b8fd	0.05999087
221	0x3d299507	0.04140189
222	0xbc4af472	-0.012387382
223	0x3d3f5a1b	0.04671679
224	0x3e0cf5ec	0.13765687
225	0x3dbcd57e	0.09220408
226	0xbd46c628	-0.04852882
227	0xbda86660	-0.082226515
228	0xbc71be63	-0.014754864
229	0x3d1c09a4	0.03809513
230	0x3dd7e19a	0.10541077
231	0x3d6d70ba	0.057968833
232	0xbdb16fd4	-0.08663908
233	0x3de4dff0	0.11175525
234	0xbd5fdaeb	-0.054652136
235	0x3dc98585	0.0983992
236	0xbd5f703c	-0.054550394
237	0xbdceb2f1	-0.10092724
238	0x3dad4668	0.084606946
239	0x3dc8ed42	0.09810878
240	0x3d8ce84b	0.06880244
241	0x3d7ecd74	0.062207654
242	0xbce5e57f	-0.028063534
243	0x3d4002ac	0.046877548
244	0x3cdb8390	0.026796132
245	0x3e4b11bb	0.19830982
246	0x3d5897d7	0.05287918
247	0xbcc73798	-0.024318501
248	0x3e0064cf	0.12538455
249	0x3d95576d	0.07292066
250	0xb9244ecc	-0.00015669613
251	0xbbb8aa48	-0.0056355335
252	0x3d0f34aa	0.034962334
253	0xbdf1c310	-0.11804783
254	0xbbb7d0f0	-0.005609624
255	0xbd0c2c5d	-0.034221996

model.0.bias f4 [128]
0	0x3de89687	0.11356836
1	0x3e01512f	0.12628625
2	0x3dd508d0	0.104020715
3	0x3d92d26c	0.07169041
4	0x3de3b0ab	0.11117681
5	0x3df0a1aa	0.11749585
6	0x3db86851	0.09004272
7	0x3dc89855	0.0979468
8	0x3ddaa635	0.10676233
9	0x3ddb44ca	0.1070648
10	0x3e026a05	0.12735756
11	0x3dcb0228	0.09912521
12	0x3e005901	0.12533952
13	0x3dbf586c	0.09343037
14	0x3d964196	0.07336728
15	0x3ddf742e	0.109108314
16	0x3dc491c3	0.09598114
17	0x3de01cf2	0.10943021
18	0x3df7652d	0.120798446
19	0x3dfa06e1	0.12208343
20	0x3db3af12	0.087736264
21	0x3db3159c	0.08744356
22	0x3dcf5ee0	0.10125518
23	0x3ddd08dd	0.10792706
24	0x3e0278fa	0.12741461
25	0x3dfa0da5	0.12209634
26	0x3db002b3	0.08594265
27	0x3de65906	0.112474486
28	0x3dfff43e	0.124977574
29	0x3dd32cb4	0.10311261
30	0x3dddaa74	0.10823527
31	0x3de527ad	0.11189208
32	0x3df6fbae	0.12059723
33	0x3dc4d63a	0.09611173
34	0x3e05be4c	0.13060874
35	0x3dd1dabf	0.10246801
36	0x3def2b00	0.116781235
37	0x3e08f342	0.13374045
38	0x3dfa0209	0.122074194
39	0x3de6b0b9	0.11264176
40	0x3dc56ce7	0.09639912
41	0x3e06edc3	0.13176636
42	0x3dbd0490	0.09229386
43	0x3dd39b04	0.10332301
44	0x3da1327c	0.07870957
45	0x3db61224	0.08890179
46	0x3de9289a	0.11384697
47	0x3dc6394e	0.09678899
48	0x3dfd6e06	0.12374501
49	0x3dcb5641	0.09928561
50	0x3dd0fad6	0.10204093
51	0x3e0c9803	0.13729863
52	0x3dc09e3a	0.09405179
53	0x3e05c9d4	0.13065273
54	0x3de9da81	0.114186294
55	0x3ddf0196	0.10888974
56	0x3dad6f51	0.084684975
57	0x3d7f4f5f	0.062331554
58	0x3da6ae63	0.081387304
59	0x3de4bf8a	0.11169346
60	0x3def28a5	0.11677674
61	0x3df91525	0.12162236
62	0x3df34678	0.11878675
63	0x3db98558	0.090586364
64	0x3d98c9f2	0.07460393
65	0x3de7b551	0.1131388
66	0x3dd5f1b2	0.1044649
67	0x3de7d4bb	0.11319872
68	0x3db25035	0.087067045
69	0x3dc63351	0.096777566
70	0x3dedad42	0.11605312
71	0x3dec77ba	0.115462735
72	0x3df6c361	0.12048984
73	0x3dfaf032	0.12252845
74	0x3dff3a92	0.12462343
75	0x3dcc4efb	0.09976002
76	0x3df0a570	0.11750305
77	0x3dbd7829	0.09251434
78	0x3dca0544	0.098642856
79	0x3db728f8	0.08943361
80	0x3df8cc24	0.12148312
81	0x3dea6c8f	0.11446487
82	0x3dd3fb00	0.10350609
83	0x3db3862b	0.08765825
84	0x3dc1b9f0	0.09459293
85	0x3db44125	0.08801488
86	0x3df4ecd1	0.11959232
87	0x3de33c05	0.11095432
88	0x3e02199c	0.12705082
89	0x3e014317	0.12623249
90	0x3d9f9676	0.0779237
91	0x3df01b5d	0.11723969
92	0x3de1b781	0.11021329
93	0x3e0081d3	0.12549524
94	0x3e012b35	0.12614138
95	0x3ddb784b	0.107163034
96	0x3deff176	0.11715977
97	0x3dfb54e2	0.122720495
98	0x3da9db16	0.082937405
99	0x3de6960c	0.11259088
100	0x3e039504	0.12849814
101	0x3de04024	0.10949734
102	0x3defefac	0.11715636
103	0x3ddace54	0.10683885
104	0x3dfd46cd	0.1236702
105	0x3dd8fd92	0.1059524
106	0x3dd6dcae	0.1049131
107	0x3dfcf22f	0.1235088
108	0x3de355e8	0.1110037
109	0x3dfba4a9	0.12287266
110	0x3df61017	0.12014788
111	0x3dffebb3	0.12496128
112	0x3db23981	0.08702374
113	0x3e05ff06	0.13085565
114	0x3db2b0a4	0.08725098
115	0x3dee1125	0.11624364
116	0x3dd5bf29	0.104368515
117	0x3dc16fe2	0.09445168
118	0x3dd9dd2b	0.106378876
119	0x3d7f4c7a	0.062328793
120	0x3d985988	0.07438952
121	0x3de728e9	0.112871
122	0x3dbb2909	0.09138686
123	0x3de8f14f	0.11374151
124	0x3dacdd89	0.08440692
125	0x3dea4acc	0.114400476
126	0x3de61648	0.112347186
127	0x3df93600	0.12168503

model.2.weight f4 [4, 128]
0	0xbeba214d	-0.3635353
1	0xbe8d1828	-0.27557492
2	0x3e8f545a	0.27994043
3	0x3e47bbeb	0.19505279
4	0x3e8f796e	0.2802233
5	0x3ea8c4d8	0.3296268
6	0x3e49ed62	0.1971946
7	0x3e7b61bc	0.24549001
8	0x3eb68bd7	0.35653564
9	0xbeb33e39	-0.3500841
10	0xbeb8f295	-0.36122575
11	0x3e1e98b2	0.15487936
12	0xbe8399ae	-0.25703186
13	0x3e315d3c	0.17320722
14	0x3ea10424	0.31448472
15	0x3deb40e7	0.114869885
16	0x3e3ca39c	0.18421787
17	0x3e6f6a4b	0.23380391
18	0x3e652363	0.2237678
19	0x3e6d8be3	0.23197894
20	0x3e4b7072	0.19867113
21	0xbeaf3b80	-0.34225082
22	0x3e9d931a	0.30776292
23	0x3e8f6654	0.28007758
24	0xbe99c8d4	-0.30036032
25	0xbe89d346	-0.26919
26	0xbebce270	-0.36891508
27	0xbeb2521a	-0.34828264
28	0x3e33eb16	0.17570147
29	0x3e66c961	0.22537757
30	0x3e66519e	0.22492072
31	0xbeb1ea7c	-0.3474921
32	0xbeb7f13d	-0.35926238
33	0x3e482611	0.19545771
34	0xbe75513c	-0.2395677
35	0x3ea26bce	0.31722873
36	0xbe8ec08f	-0.27881286
37	0x3e7879f7	0.24265276
38	0xbe673655	-0.2257932
39	0xbe633112	-0.22186688
40	0x3e130157	0.1435598
41	0xbeae31f9	-0.340225
42	0x3e82369e	0.25432295
43	0xbeac2c16	-0.33627385
44	0x3e44c1c6	0.19214544
45	0x3e9617c3	0.29315004
46	0x3e8bdffd	0.27319327
47	0x3e97292a	0.29523593
48	0x3e96ca06	0.29451007
49	0xbec156db	-0.37761578
50	0x3e6ac1aa	0.2292544
51	0xbe3e8c8e	-0.18608305
52	0x3ea05710	0.31316423
53	0xbeb932c7	-0.36171553
54	0xbea98cc2	-0.33115202
55	0xbe9b5cae	-0.30344146
56	0x3eb3e9dc	0.35139358
57	0x3e34eef5	0.1766928
58	0xbeb9975f	-0.362483
59	0xbea6443a	-0.32473928
60	0xbebe0639	-0.37114123
61	0xbe98ad12	-0.29819542
62	0xbea589ec	-0.3233179
63	0x3e90ceff	0.28282925
64	0x3e8fcbb7	0.2808511
65	0x3e8f1b1d	0.27950373
66	0x3e96f26e	0.29481834
67	0x3e8d1454	0.27554572
68	0x3e595105	0.21222313
69	0x3ec64437	0.3872392
70	0xbeacce92	-0.3375135
71	0x3eacf471	0.33780244
72	0xbea0bc03	-0.31393442
73	0xbee26205	-0.44215408
74	0xbed5b5a0	-0.4174013
75	0xbea908f0	-0.3301463
76	0x3e629d37	0.22130285
77	0x3e7f85c0	0.24953365
78	0xbeb33d47	-0.35007688
79	0x3e127737	0.1430329
80	0x3e4f269c	0.20229572
81	0xbec2bab6	-0.38033074
82	0x3eba2731	0.36358026
83	0x3e73c22b	0.23804538
84	0xbe970ce0	-0.2950201
85	0xbe8f0528	-0.2793362
86	0xbea0edb2	-0.31431347
87	0x3dd32a91	0.10310853
88	0x3e5ae33c	0.21375746
89	0xbeb9b5f9	-0.36271647
90	0x3e82b249	0.25526646
91	0x3e7b0153	0.24512224
92	0xbede1595	-0.4337584
93	0x3e9ce250	0.30641413
94	0xbe9a0d8f	-0.3008847
95	0x3e9df88b	0.30853686
96	0xbec80d5a	-0.39072686
97	0xbed8752c	-0.42276895
98	0xbea93859	-0.33050802
99	0x3e9fbf1d	0.31200495
100	0xbe9f2ff8	-0.31091285
101	0xbebf9234	-0.37416232
102	0xbeb88b65	-0.3604385
103	0x3e8bcc61	0.27304366
104	0xbe9fc61b	-0.3120583
105	0xbeb6e51d	-0.35721675
106	0xbe7213f5	-0.23640426
107	0xbea8dd95	-0.32981554
108	0x3e69e588	0.22841465
109	0xbeb0df66	-0.3454544
110	0x3e7b21a7	0.24524556
111	0x3e6e888f	0.2329428
112	0x3e9686f5	0.2939984
113	0x3e536ff9	0.20648183
114	0xbedb8c7a	-0.42880613
115	0xbe8a6c26	-0.27035636
116	0xbe87b57b	-0.26505646
117	0x3e8e795a	0.2782696
118	0x3e68e7ce	0.22744676
119	0x3e6e626e	0.23279735
120	0x3e9e167a	0.30876523
121	0xbe96ddf5	-0.29466215
122	0xbeb0829e	-0.34474653
123	0xbec02546	-0.37528437
124	0x3e6819c8	0.22666085
125	0xbe8e7141	-0.2782078
126	0xbeaf8c22	-0.342866
127	0xbec2272d	-0.37920514
128	0xbe8e4c30	-0.277925
129	0xbea89bcb	-0.3293136
130	0xbeb63978	-0.3559072
131	0xbe6a7d4c	-0.2289936
132	0xbe7815c7	-0.24227057
133	0xbe63227d	-0.22181125
134	0xbe8c2a68	-0.27376103
135	0xbeac6695	-0.33672014
136	0x3e473d31	0.19456936
137	0x3eb93ef0	0.3618083
138	0x3e62bec4	0.22143084
139	0xbecca1cf	-0.399672
140	0xbea89c73	-0.3293186
141	0x3dac9e26	0.08428602
142	0xbed80295	-0.4218947
143	0xbecfd42e	-0.40591568
144	0xbeb5ac58	-0.3548305
145	0xbe9b23ed	-0.30300847
146	0x3e7838ed	0.24240465
147	0x3e489b25	0.19590433
148	0xbe8ebbb6	-0.27877587
149	0xbede0481	-0.4336281
150	0xbec1c368	-0.37844396
151	0x3e42f2f1	0.19037987
152	0xbec09253	-0.37611637
153	0x3e8cd8a6	0.2750904
154	0x3e82d1ef	0.25550792
155	0xbe9e496e	-0.30915397
156	0xbe9a2cc2	-0.30112273
157	0xbe6ab60c	-0.22921008
158	0xbe950397	-0.291043
159	0xbe6a3ad5	-0.22874005
160	0xbe687136	-0.22699437
161	0xbec832d0	-0.39101267
162	0xbe9e29f6	-0.3089139
163	0xbeaed0a6	-0.3414356
164	0x3e8068e0	0.25080013
165	0xbe2cd0e6	-0.16876563
166	0x3ebc88a7	0.36823007
167	0xbe81f09c	-0.25378883
168	0x3d85b5ed	0.0652884
169	0x3e588a03	0.21146397
170	0x3e950692	0.29106575
171	0x3e54b202	0.2077103
172	0x3e57cf24	0.21075112
173	0xbedbf46c	-0.42959917
174	0x3e87b1cd	0.2650284
175	0x3e718598	0.23586118
176	0x3e9b8ff4	0.30383265
177	0xbeb282ae	-0.34865326
178	0x3e8b0e14	0.27159178
179	0xbe75cc12	-0.24003628
180	0xbe9f2694	-0.3108412
181	0x3e3b9e1c	0.18322033
182	0x3e8f3e8f	0.27977416
183	0x3eb6ea6e	0.3572573
184	0xbeca98f3	-0.39569816
185	0xbe72f9f1	-0.23728158
186	0xbe8b780e	-0.27240032
187	0x3e649a6f	0.22324537
188	0xbe893b55	-0.2680308
189	0xbea7b99d	-0.327588
190	0xbea8496d	-0.3286852
191	0xbe87eeea	-0.26549464
192	0xbea84a2d	-0.32869092
193	0x3e7befea	0.24603239
194	0xbeb80a6a	-0.35945445
195	0xbe6f4420	-0.23365831
196	0xbe99e3aa	-0.30056506
197	0xbed5c4ce	-0.41751713
198	0x3e08062c	0.13283604
199	0xbe6efdd2	-0.23339012
200	0x3e67815c	0.2260794
201	0x3e29811f	0.16553162
202	0x3de37b55	0.11107508
203	0x3e8aeaaf	0.27132174
204	0x3e8e8390	0.2783475
205	0xbea34575	-0.3188893
206	0x3e86daf2	0.26338917
207	0xbedd0108	-0.4316485
208	0x3e884275	0.26613203
209	0xbe9692c5	-0.2940885
210	0xbe994d0c	-0.29941595
211	0x3c2d9914	0.010595579
212	0xbea0a121	-0.31372932
213	0xbeb92c72	-0.36166722
214	0x3eb53485	0.35391632
215	0xbec064ab	-0.37576804
216	0x3e503d85	0.20335968
217	0x3e7a3f5b	0.2443823
218	0xbec5dcb5	-0.3864495
219	0xbe942afe	-0.2893905
220	0x3e77a23e	0.24182984
221	0x3e52b198	0.20575559
222	0xbeba9cab	-0.36447653
223	0xbe9fc05d	-0.3120145
224	0x3ea2fbe6	0.31832808
225	0x3e813a8d	0.25239983
226	0x3dd5eba2	0.10445334
227	0xbe9d24fb	-0.30692276
228	0xbeb4511f	-0.3521814
229	0x3e86b08e	0.26306576
230	0xbe6f8c55	-0.23393376
231	0x3e0529ca	0.13004223
232	0x3e2b2bc3	0.16715913
233	0x3e8c5619	0.27409437
234	0xbec1ecf0	-0.3787608
235	0x3e88bae2	0.2670508
236	0x3eade88c	0.33966482
237	0x3e8a2e5a	0.26988488
238	0xbe9f450f	-0.31107375
239	0x3e64df43	0.22350793
240	0xbec247ba	-0.37945348
241	0x3e630e5b	0.22173445
242	0x3ebb03b2	0.36526257
243	0x3ea8773a	0.32903463
244	0xbe75de33	-0.24010544
245	0x3e86889b	0.26276097
246	0xbe859c2d	-0.26095715
247	0x3e1be03b	0.15222256
248	0xbecb665b	-0.3972653
249	0x3ec22ef2	0.3792644
250	0x3da8b6a2	0.082379594
251	0xbeac1569	-0.33610085
252	0x3ea8be1a	0.32957536
253	0xbeb6ff6c	-0.35741746
254	0xbea1485c	-0.31500518
255	0x3da3ef45	0.080046214

model.2.bias f4 [4]
0	0x3cb15839	0.021648513
1	0x3d02ad45	0.031903524
2	0x3d18af57	0.037276592
3	0x3d118d01	0.035534862
