src/sentiment-classification/results/modelo_mlp_5_camadas.pt (torch, 648617 bytes, 12 tensors)

model.0.weight f4 [128, 736]
-0.03230286 0.00633397 0.061446797 -0.030142069 -0.030672017 0.00895226 0.03893319 0.03938078
0.026678473 -0.00024223042 0.011733376 -0.035453115 -0.0016853908 -0.008883692 -0.024494976 -0.008065777
0.008416622 -0.023611488 0.0012382838 0.0061283605 -0.030702585 0.015213789 -0.04940974 -0.02330432
-0.025604345 0.02681452 -0.038538754 0.009384091 0.00401236 0.027970348 0.001653567 -0.028838214
-0.012296627 0.06256693 -0.02348833 -0.015981501 -0.011624018 -0.030658038 0.041408803 -0.019550724
-0.01821759 0.010137472 0.016428573 0.062340204 0.0038282871 -0.01292975 -0.043096732 0.00492258
-0.020263372 0.029814214 0.027132036 -0.039835565 -0.0047462843 0.042944558 -0.003794603 0.0091515565
0.033459127 -0.028350959 0.00913486 -0.0056934007 -0.010356809 -0.004767224 0.06191518 0.028811235
0.011159799 -0.058529153 0.0045562424 0.00041434902 0.033009104 0.055478018 -0.042738136 -0.015462678
0.032854583 0.051087815 0.012007168 -0.0084221335 -0.010076048 0.01712045 -0.0017894252 0.008492523
-0.019619606 0.018043337 -0.017764213 0.042782575 0.032978896 -0.0012565956 -0.0019468004 0.085525684
0.004760939 0.07241685 0.031125857 -0.056557037 -0.03101323 0.046920616 -0.05731196 0.03777362
0.037520062 -0.026944287 0.0045883255 0.02237336 0.007744248 0.052617665 0.03743716 -0.028611254
-0.043947138 -0.015285905 0.0021555205 0.041288473 0.058321845 0.023837961 -0.010265358 -0.027524255
0.006353311 -0.013402004 0.023632005 0.018279027 0.014038604 0.021843066 0.08570855 -0.026442636
0.03987266 -0.03550656 0.03133791 0.0444511 0.09995029 0.030356383 0.06919757 -0.0214988
-0.030529376 0.03182164 -0.008840842 0.027296077 -0.015414989 0.016940312 0.05832593 -0.004607156
0.017712427 -0.02564424 -0.032851174 -0.007692 0.015045464 -0.05757299 0.013680593 0.029450608
-0.032977223 0.0035085261 -0.028794814 0.0049226475 -0.025159577 -0.03533972 0.035627376 -0.023663336
-0.039389253 0.055081557 0.04458762 0.009218301 0.0074888365 -0.03896621 0.021655604 0.018878937
0.030302003 -0.032999203 -0.010616622 -0.01067744 0.016672488 0.0060478863 -0.038376275 -0.0048771985
0.017165884 0.03342916 0.010540057 0.0044945045 -0.0074098557 -0.0048976736 0.03590975 0.07449553
0.004289803 0.054753054 0.02907372 0.004505038 0.006722477 -0.066334374 -0.027337778 0.078988984
0.053841393 0.014805641 -0.026035052 0.06994034 -0.0026897378 -0.014217454 0.06468888 0.06845592
0.008997462 0.003090411 0.07688216 -0.0022151917 0.00037915632 -0.014163649 0.03765979 -0.023879204
-0.0289277 -0.037110418 -0.032014485 -0.011905393 -0.0076324153 -0.018996056 -0.049087137 -0.033745598
0.009613072 -0.030923467 0.039914288 -0.003247686 -0.024560496 -0.05778611 -0.03784823 0.0071649253
-0.017930176 0.03393805 -0.020703603 0.064544715 0.018437196 0.023680767 -0.022949545 0.01583313
0.059067365 0.0048186765 -0.03939773 -0.033653237 -0.021022694 0.015588927 0.024790494 -0.037542973
0.0037755806 0.052199487 -0.014876301 0.04826631 -0.015539284 0.00982219 -0.0045235557 0.02619717
0.07207408 0.015665896 0.020077007 0.031368416 0.0106910085 0.034828614 0.020556126 -0.041399777
0.057342626 0.058377504 0.02555394 -0.03267343 0.012634341 -0.024532048 0.019783393 -0.015298955
00000000: 0150 04bd 318d cf3b a3af 7b3d 80ec f6bc
00000010: e243 fbbc 80ac 123c 6978 1f3d be4d 213d
00000020: d08c da3c 3cff 7db9 593d 403c 4937 11bd
00000030: 55e8 dcba e88c 11bc b0a9 c8bc 5226 04bc
00000040: dfe5 093c e16c c1bc e94d a23a 6ad0 c83b
00000050: fd83 fbbc 4243 793c de61 4abd b4e8 bebc
00000060: 34c0 d1bc 20aa db3c d0da 1dbd bbbf 193c
00000070: 1d7a 833b 1222 e53c 80bc d83a 1e3e ecbc
00000080: cb77 49bc 1723 803d 996a c0bc a3eb 82bc
00000090: aa72 3ebc 9126 fbbc 479c 293d d728 a0bc
000000a0: 0e3d 95bc a417 263c 3795 863c 7158 7f3d
000000b0: 00e4 7a3b 4dd7 53bc 3386 30bd 984d a13b
000000c0: 5fff a5bc f03c f43c 0144 de3c 9e2a 23bd
000000d0: b886 9bbb a2e6 2f3d e0ae 78bb 69f0 153c
000000e0: 700c 093d 4540 e8bc 61aa 153c b58f babb
000000f0: 9baf 29bc 6036 9cbb c69a 7d3d 8a05 ec3c
00000100: 97d7 363c 44bc 6fbd 884c 953b fc3c d939
00000110: 8e34 073d eb3c 633d 2f0e 2fbd 2c57 7dbc
00000120: 8792 063d 7541 513d b6b9 443c fdfc 09bc
00000130: 0216 25bc 3040 8c3c 258b eaba 3924 0b3c
00000140: 4cb9 a0bc 9fcf 933c 4186 91bc c83c 2f3d
00000150: e114 073d 5ab4 a4ba c82b ffba 1728 af3d
00000160: a701 9c3b 494f 943d a7fb fe3c 5aa8 67bd
00000170: 750f febc d52f 403d f2bf 6abd 83b8 1a3d
00000180: a3ae 193d 44ba dcbc aa59 963b 5648 b73c
00000190: 76c3 fd3b 9f85 573d b557 193d 2662 eabc
000001a0: ea01 34bd bc71 7abc a243 0d3b 1a1e 293d
000001b0: e3e2 6e3d d447 c33c 0830 28bc 8c7a e1bc
000001c0: 6f2f d03b 1494 5bbc e897 c13c e6bd 953c
000001d0: 2c02 663c 3bf0 b23c f787 af3d 3a9e d8bc
000001e0: 8451 233d 546f 11bd 2e5c 003d 5b12 363d
000001f0: bdb2 cc3d f3ad f83c 75b7 8d3d 401e b0bc
00000200: be18 fabc 6857 023d 2ed9 10bc 069c df3c
00000210: 268f 7cbc 69c6 8a3c 2ce7 6e3d a0f7 96bb
00000220: a719 913c df13 d2bc f48e 06bd 2c0d fcbb
00000230: 4081 763c a8d1 6bbd 9124 603c 6742 f13c
00000240: 2013 07bd 4def 653b 1ae3 ebbc 294e a13b
00000250: 751b cebc 62c0 10bd 03ee 113d 9dd9 c1bc
00000260: a056 21bd 339d 613d 82a1 363d 5b08 173c
00000270: ea64 f53b 089b 1fbd 1867 b13c 00a8 9a3c
00000280: e83b f83c 2c2a 07bd 57f1 2dbc 6ef0 2ebc
00000290: be94 883c 592d c63b 7130 1dbd e8d0 9fbb
000002a0: 789f 8c3c 04ed 083d 34b0 2c3c a346 933b
000002b0: 60ce f2bb aa7c a0bb 1a16 133d 1d91 983d
000002c0: 7a91 8c3b bd44 603d 032c ee3c ff9e 933b
000002d0: 3948 dc3b 51da 87bd 7af3 dfbc fac4 a13d
000002e0: cb88 5c3d 5c93 723c 7647 d5bc e23c 8f3d
000002f0: 5046 30bb 53f0 68bc 9b7b 843d 9e32 8c3d
00000300: 176a 133c 7e88 4a3b 6574 9d3d c02c 11bb
00000310: 80c9 c639 a60e 68bc 2741 1a3d 529e c3bc
00000320: c9f9 ecbc 1801 18bd 9f21 03bd d60e 43bc
00000330: 5719 fabb 9e9d 9bbc 980f 49bd d338 0abd
00000340: 2580 1d3c 3653 fdbc 2a7d 233d 21d7 54bb
00000350: 1833 c9bc 21b1 6cbd bf06 1bbd c0c7 ea3b
00000360: 4ee2 92bc a002 0b3d 9a9a a9bc 0530 843d
00000370: 9a09 973c 2bfe c13c af00 bcbc 7bb4 813c
00000380: 9ff0 713d fde5 9d3b 845f 21bd fad7 09bd
00000390: c937 acbc b368 7f3c 6f15 cb3c a9c6 19bd
000003a0: bb6f 773b 21cf 553d bbbb 73bc e5b2 453d
000003b0: 7b98 7ebc 40ed 203c 563a 94bb 739b d63c
000003c0: 939b 933d c455 803c 8978 a43c 2b7c 003d
000003d0: 5729 2f3c 73a8 0e3d 5265 a83c d092 29bd
000003e0: 1ae0 6a3d 401d 6f3d 7f56 d13c 93d4 05bd
000003f0: 4400 4f3c 6ff7 c8bc c810 a23c 78a8 7abc

model.0.bias f4 [128]
0.00081775174 0.031802393 -0.026460035 0.055686876 -0.006092822 0.0017772221 0.0077152634 -0.0021564458
0.024656063 -0.009168558 0.04210566 0.012841872 0.039568007 0.013459862 0.06885178 0.0314499
0.04118053 -0.003572829 0.04689802 0.007696262 0.027040519 -0.045546692 0.019678283 0.028424326
0.031224446 0.07292465 0.046746433 0.041237 -0.03911683 0.018743938 0.03949308 0.018254995
0.009004218 0.0111321015 0.05600008 0.03095263 0.03241756 0.020115415 0.03691017 0.019021176
0.03796784 -0.013468629 0.027222196 0.04510152 0.008827667 0.0022904438 0.025107272 -0.03496454
-0.0101806605 0.047364112 0.027516566 0.04979012 -0.005700217 0.0660373 0.015657715 0.05236881
0.011194859 0.07845328 -0.008465844 0.00045150088 0.017181257 0.02809727 0.016727393 0.04009448
0.031477228 0.030924357 0.026710233 0.051203396 -0.011272718 -0.007534826 0.04525686 0.014986967
0.013372735 0.036966126 -0.014164602 0.03611703 0.022715075 -0.0051321345 0.0066491496 0.0072590876
0.03454946 0.0053632795 0.051357374 -0.0077703185 0.10705415 0.0034330648 0.015299002 0.05345567
0.037504412 0.013819472 0.0730189 0.018912105 0.08517527 0.039919224 0.021923175 -0.004364702
0.042550217 0.025412712 0.038417105 0.023499079 0.0063783103 0.018864661 -0.02369117 -0.0027253309
0.011344301 0.039554447 0.040131137 0.029655162 -0.06035041 0.049808506 0.030967738 -0.036685985
0.03562145 0.05411469 0.047751922 0.032662887 0.02468663 0.033187635 0.02283981 0.033934828
0.011252824 0.03555781 -0.032901503 0.061815728 0.03589604 0.024418473 0.062271904 0.009023976
00000000: 645e 563a 3a43 023d b7c2 d8bc ec17 643d
00000010: 4ca6 c7bb aef1 e83a 52d0 fc3b 2853 0dbb
00000020: 83fb c93c b837 16bc fc76 2c3d b766 523c
00000030: 1012 223d c186 5c3c 2902 8d3d 9cd1 003d
00000040: eaac 283d 2026 6abb 2318 403d ed30 fc3b
00000050: 1484 dd3c 2b8f 3abd 5a34 a13c 22da e83c
00000060: 69ca ff3c 8559 953d 3079 3f3d 21e8 283d
00000070: f838 20bd e38c 993c 7fc3 213d 808b 953c
00000080: 6d86 133c 6b63 363c 5760 653d 5f90 fd3c
00000090: 47c8 043d 15c9 a43c 1e2f 173d 4cd2 9b3c
000000a0: 2a84 1b3d 86ab 5cbc 1501 df3c 5fbc 383d
000000b0: eba1 103c 451b 163b c4ad cd3c fa36 0fbd
000000c0: c9cc 26bc df00 423d 6c6a e13c baf0 4b3d
000000d0: e3c8 babb 903e 873d 9c44 803c ad80 563d
000000e0: a46a 373c 1dac a03d 53b4 0abc 6cb7 ec39
000000f0: b5bf 8c3c 3f2c e63c e307 893c 1c3a 243d
00000100: 44ee 003d 1455 fd3c 6bcf da3c a7ba 513d
00000110: 35b1 38bc b4e6 f6bb 425f 393d e58b 753c
00000120: 5119 5b3c cb69 173d a612 68bc 73ef 133d
00000130: f714 ba3c 772b a8bb 1ce1 d93b a4dd ed3b
00000140: bc83 0d3d 73be af3b 1c5c 523d 289e febb
00000150: 353f db3d 45fd 603b aaa8 7a3c 55f4 5a3d
00000160: 3a9e 193d 116b 623c ef8a 953d 8fed 9a3c
00000170: 5f70 ae3d 5782 233d 3b98 b33c c605 8fbb
00000180: 2349 2e3d 522e d03c 415b 1d3d 2481 c03c
00000190: 2501 d13b 108a 9a3c fc13 c2bc 779b 32bb
000001a0: 72dd 393c d803 223d 8c60 243d 62ef f23c
000001b0: fe31 77bd 0104 4c3d 0eb0 fd3c 0b44 16bd
000001c0: cce7 113d 5da7 5d3d 8597 433d 85c9 053d
000001d0: 9e3b ca3c c2ef 073d 8e1a bb3c 3fff 0a3d
000001e0: c45d 383c 11a5 113d bac3 06bd 7d32 7d3d
000001f0: ba07 133d 4009 c83c d310 7f3d 4cd9 133c

model.2.weight f4 [128, 128]
0.009191103 -0.035419453 0.016209744 -0.041800115 -0.073369436 0.06787195 0.016506046 0.046526067
0.027449138 -0.045637913 -0.03068025 0.07694004 0.018275864 0.0013778433 -0.07229115 0.06290879
0.03727191 -0.048036754 -0.02110774 -0.08817594 -0.017975807 -0.077015534 -0.011452951 -0.045823045
0.043539204 -0.073940516 -0.007903323 0.037202574 -0.01478859 -0.018664785 -0.054588303 -0.042814538
0.07705099 -0.0468529 -0.05522078 0.0051780567 0.0070189983 0.021060735 -0.018257111 0.0074116066
0.016626194 0.023135968 -0.023211397 -0.008433729 0.006150946 -0.020736821 0.043174557 0.014659241
0.05557149 -0.05550385 0.033754587 0.04602807 -0.08734049 0.029559016 -0.023557283 -0.005781248
0.0471688 0.08687074 0.004356444 -0.07262607 0.012901865 -0.016507901 -0.088173464 0.043300055
-0.011770308 -0.08523204 -0.059421156 -0.055426035 -0.08062743 -0.027401268 0.05905602 0.08596829
-0.07929351 -0.02415654 0.002629064 -0.032228716 0.05154141 -0.06834356 -0.08801674 -0.00061267614
-0.0019538254 0.062632285 0.04738798 0.021211632 -0.04375627 0.08024249 0.042621918 0.065065645
0.052716248 -0.040254306 0.057537563 -0.016992517 0.03324862 0.055160604 -0.02570507 -0.085447066
-0.065484434 -0.065467864 -0.035303455 0.03325191 -0.04277471 -0.07858952 -0.013171256 0.002004832
0.0526566 0.05013425 0.08360005 0.047138058 0.05688282 -0.067065306 -0.025150321 -0.040203318
0.024081826 -0.0642966 -0.009518288 -0.024284676 0.016827255 0.02602163 -0.023563594 -0.0641898
0.013109386 -1.9297004e-06 0.07619331 0.03468609 0.036302805 -0.07958349 -0.031147342 0.0031563863
0.084605455 0.0013918176 0.034777977 -0.044635236 -0.07792292 -0.045903355 0.06433687 0.029882547
0.0013188943 0.030043088 -0.06735832 0.052375607 0.04028203 0.0045824754 0.0605065 0.06877794
0.061906442 0.04299494 -0.07367119 -0.018658333 -0.077850595 -0.049194276 -0.066084854 0.07065924
-0.05323481 0.024131928 -0.09705258 0.031020068 0.068927266 -0.07839971 -0.004096475 -0.0775741
0.018186815 -0.019887298 -0.06353526 0.03295926 0.017169429 -0.01589907 -0.08271097 -0.009662261
-0.06348001 -0.065205105 -0.008341622 0.07386417 0.0010914238 -0.08218336 -0.080784224 0.033572704
-0.014910936 0.07349891 -0.044917867 0.016001992 0.06493363 0.013229169 -0.083535634 0.043456256
0.02666869 0.06790459 0.014975563 0.07942623 0.077556126 -0.04297322 -0.029582292 0.0505812
-0.03315093 0.07132192 0.043298237 0.059792917 0.032022722 -0.059881505 -0.08160435 -0.032236293
-0.0069315657 0.06975106 0.05473285 -0.0031540457 -0.024194092 -0.0018549376 -0.005873878 -0.011157962
-0.06811258 0.05897393 0.043536097 -0.06700745 0.0069065574 -0.053980768 0.04144647 0.05734131
-0.05365769 -0.069060825 0.021729082 -0.047806412 -0.047295377 -0.06674778 0.020087875 0.035454318
0.07972967 -0.04830422 0.0165077 0.005794756 0.024443472 -0.016648961 0.010522015 -0.034270108
0.06514392 -0.087164685 0.013806462 0.02782656 0.008210599 -0.071996436 0.041570157 0.034773074
-0.03479494 0.050535597 -0.07730824 0.017679045 -0.020338364 0.053601056 -0.07554168 0.054292597
-0.014597654 -0.07265077 0.028890222 -0.039769158 0.03535278 0.078191034 0.0002623225 0.048350222
00000000: 4896 163c fd13 11bd 4cca 843c 9936 2bbd
00000010: b742 96bd 7300 8b3d b037 873c 1e92 3e3d
00000020: 04dd e03c d2ee 3abd 2655 fbbc bd92 9d3d
00000030: 44b7 953c c098 b43a 620d 94bd 53d6 803d
00000040: 6eaa 183d 30c2 44bd 24ea acbc 9695 b4bd
00000050: 0042 93bc 52ba 9dbd 28a5 3bbc f2b0 3bbd
00000060: 2a56 323d 206e 97bd f07c 01bc ba61 183d
00000070: d84b 72bc e4e6 98bc fc97 5fbd 4c5e 2fbd
00000080: e9cc 9d3d d4e8 3fbd 2f2f 62bd b0ac a93b
00000090: a0ff e53b 9087 ac3c f08f 95bc 10dd f23b
000000a0: a833 883c a487 bd3c d425 bebc a02d 0abc
000000b0: e08d c93b 44e0 a9bc ced7 303d 502d 703c
000000c0: ee9e 633d 0158 63bd 4042 0a3d ee87 3c3d
000000d0: 92df b2bd c025 f23c 34fb c0bc a070 bdbb
000000e0: 1234 413d 49e9 b13d 80c0 8e3b fabc 94bd
000000f0: 5862 533c 943b 87bc 4a94 b4bd 665b 313d
00000100: 40d8 40bc 238e aebd 9963 73bd 6906 63bd
00000110: fe1f a5bd a078 e0bc bae4 713d 2510 b03d
00000120: a364 a2bd f0e3 c5bc 604c 2c3b 4202 04bd
00000130: 161d 533d b5f7 8bbd 1f42 b4bd 009c 20ba
00000140: c00b 00bb 5b45 803d e619 423d 04c4 ad3c
00000150: c639 33bd 2d56 a43d 5294 2e3d 2341 853d
00000160: feec 573d b3e1 24bd 82ac 6b3d e433 8bbc
00000170: b42f 083d 16f0 613d 7093 d2bc dffe aebd
00000180: b41c 86bd 0414 86bd 5b9a 10bd 2833 083d
00000190: 8934 2fbd 8bf3 a0bd 40cc 57bc 8063 033b
000001a0: 72ae 573d 9259 4d3d 8136 ab3d d613 413d
000001b0: f6fd 683d 8959 89bd 0c08 cebc 3cac 24bd
000001c0: 4047 c53c f0ad 83bd 98f2 1bbc a8f0 c6bc
000001d0: 50d9 893c 502b d53c 7008 c1bc f175 83bd
000001e0: c0c8 563c 0080 01b6 3d0b 9c3d 0013 0e3d
000001f0: 40b2 143d abfc a2bd b628 ffbc 60db 4e3b
00000200: a045 ad3d a66d b63a 5a73 0e3d 70d3 36bd
00000210: 0d96 9fbd 2805 3cbd 0dc3 833d 3ecc f43c
00000220: c0de ac3a ec1c f63c 29f3 89bd ce87 563d
00000230: c5fe 243d 9728 963b aad5 773d 73db 8c3d
00000240: 9c91 7d3d 761b 303d ece0 96bd 5cd9 98bc
00000250: 2270 9fbd f07f 49bd 7f57 87bd cbb5 903d
00000260: be0c 5abd 52b0 c53c 81c3 c6bd cc1d fe3c
00000270: bd29 8d3d 0790 a0bd b93b 86bb 2bdf 9ebd
00000280: 84fc 943c b0ea a2bc c61e 82bd 4a00 073d
00000290: e7a6 8c3c c43e 82bc 5e64 a9bd 764e 1ebc
000002a0: cf01 82bd 418a 85bd 4cab 08bc 1946 973d
000002b0: 1b0e 8f3a c04f a8bd 3372 a5bd 8883 093d
000002c0: 004d 74bc 9986 963d ccfb 37bd 9c16 833c
000002d0: ecfb 843d 28bf 583c bb14 abbd 30ff 313d
000002e0: 4c78 da3c 9011 8b3d 105c 753c 38aa a23d
000002f0: bfd5 9e3d b004 30bd 9056 f2bc 3b2e 4f3d
00000300: 45c9 07bd 3a11 923d 7e59 313d 6be9 743d
00000310: 422a 033d 4f46 75bd 2e20 a7bd 340a 04bd
00000320: 3022 e3bb a5d9 8e3d 8e2f 603d 1bb4 4ebb
00000330: b032 c6bc 6121 f3ba a979 c0bb e2cf 36bc
00000340: 9c7e 8bbd a68e 713d e852 323d 343b 89bd
00000350: 6750 e23b f01a 5dbd c6c3 293d b9de 6a3d
00000360: 2ac8 5bbd c36f 8dbd 3001 b23c a8d0 43bd
00000370: ccb8 41bd 0fb3 88bd 548f a43c 8c38 113d
00000380: 4f49 a33d a5da 45bd 283b 873c f0e1 bd3b
00000390: ad3d c83c 6763 88bc 8864 2c3c d05e 0cbd
000003a0: 2d6a 853d 6683 b2bd 8034 623c 87f4 e33c
000003b0: c085 063c de72 93bd 7845 2a3d 366e 0e3d
000003c0: 2485 0ebd 6afe 4e3d c853 9ebd a5d3 903c
000003d0: a49c a6bc c88c 5b3d 99b5 9abd ea61 5e3d
000003e0: 002b 6fbc edc9 94bd 30ab ec3c fce4 22bd
000003f0: 14ce 103d 9f22 a03d 5488 8939 e20a 463d

model.2.bias f4 [128]
-0.035790768 -0.08695679 0.10265836 -0.05954548 0.11763721 0.067123696 -0.05384026 -0.020813607
0.07147471 -0.04891191 0.06290733 0.0018450024 -0.0072623515 -0.06883512 0.18979083 0.08321294
0.06924543 -0.016592583 -0.03555638 0.022430455 0.075528786 0.047207925 0.0024730924 0.053626187
0.07889534 -0.0034367647 -0.052486166 -0.07337936 0.07528903 -7.284124e-05 0.117710344 0.10370089
-0.05236459 0.111953124 -0.050199766 -0.06649774 0.08045286 -0.059759617 -0.052824188 -0.02883898
0.09463172 0.11541789 0.11766294 0.11499309 0.0851835 -0.029216908 -0.04160984 -0.0077984566
0.039138783 -0.05814915 0.0662732 -0.05625124 -0.09252773 0.05751938 -0.062714234 -0.0539184
0.09047906 0.12523833 -0.06345061 0.058109622 0.07043359 -0.08353989 0.12705857 0.013507394
0.080159865 0.0988971 0.015148836 0.084188126 -0.060922805 0.05490565 0.13650763 0.10815463
-0.095687896 0.14244974 -0.03450155 0.109885365 -0.04873013 -0.045112688 -0.029293496 -0.057725087
0.08476845 -0.041112714 0.11481968 0.06592081 -0.082432255 0.07769418 0.11200823 -0.060523584
0.050632615 0.09119682 -0.061059866 0.09281065 0.00026166186 0.059812613 0.10889532 0.03601659
-0.06490763 0.09642092 0.0797369 -0.06750121 0.026804063 0.069840916 0.05107039 0.09902121
-0.05164502 0.13524035 0.09501835 0.10156145 0.014378754 -0.021732979 -0.03923215 0.077555194
0.1020543 0.046340935 -0.078675665 0.03143223 0.14401512 -0.093514375 -0.054827094 0.03655371
-0.090751626 -0.06480903 -0.01908527 0.10334817 -0.011930481 0.048656538 0.12707108 -0.034561638
00000000: 5799 12bd 6716 b2bd 8c3e d23d f6e5 73bd
00000010: c7eb f03d 2678 893d 9b87 5cbd 4c81 aabc
00000020: 5561 923d db57 48bd 8fd5 803d 02d4 f13a
00000030: 05f9 edbb 6df9 8cbd 8758 423e 8c6b aa3d
00000040: 8cd0 8d3d 2bed 87bc 91a3 11bd 13c0 b73c
00000050: d6ae 9a3d 195d 413d 9b13 223b 22a7 5b3d
00000060: e193 a13d 583b 61bb bcfb 56bd eb47 96bd
00000070: 2331 9a3d 58c2 98b8 1f12 f13d 2261 d43d
00000080: 417c 56bd ae47 e53d 459e 4dbd f82f 88bd
00000090: 78c4 a43d 80c6 74bd 2d5e 58bd b93f ecbc
000000a0: 46ce c13d 3760 ec3d 44f9 f03d 7f81 eb3d
000000b0: b074 ae3d 4c58 efbc 146f 2abd 328a ffbb
000000c0: fd4f 203d ce2d 6ebd 3eba 873d b367 66bd
000000d0: 2e7f bdbd 7199 6b3d 5270 80bd 8ad9 5cbd
000000e0: 164d b93d 7a3e 003e 65f2 81bd 5b04 6e3d
000000f0: 7c3f 903d f616 abbd a41b 023e 1e4e 5d3c
00000100: db2a a43d 908a ca3d d332 783c d36a ac3d
00000110: 318a 79bd bfe4 603d a8c8 0b3e 2d80 dd3d
00000120: 04f8 c3bd 58de 113e 7f51 0dbd 940b e13d
00000130: 3f99 47bd 15c8 38bd eaf8 efbc 2471 6cbd
00000140: 159b ad3d ce65 28bd 9526 eb3d 7d01 873d
00000150: 3ed2 a8bd 201e 9f3d 9264 e53d 94e7 77bd
00000160: 2564 4f3d 66c5 ba3d e919 7abd 8313 be3d
00000170: a92f 8939 12fe 743d 8204 df3d 2286 133d
00000180: 4bee 84bd 5578 c53d 1a4d a33d 133e 8abd
00000190: 3294 db3c c108 8f3d 2f2f 513d a2cb ca3d
000001a0: ba89 53bd 727c 0a3e fb98 c23d 73ff cf3d
000001b0: de94 6b3c 5c09 b2bc e4b1 20bd 42d5 9e3d
000001c0: d801 d13d fecf 3d3d b520 a1bd 15bf 003d
000001d0: b378 133e 7784 bfbd 6092 60bd 58b9 153d
000001e0: fddb b9bd 99ba 84bd b658 9cbc 35a8 d33d
000001f0: 1078 43bc 144c 473d ec1e 023e 8190 0dbd

model.4.weight f4 [128, 128]
-0.027993158 -0.08487612 -0.07357005 -0.039183628 0.072665684 -0.06909422 -0.060071744 0.070165016
0.11790166 0.0054104105 0.21048294 0.12182569 0.112847775 0.048863374 0.009717464 0.15277457
0.12805197 0.016038068 0.051432855 -0.055562705 -0.0150341 0.045051012 0.21083367 0.07028485
-0.106305726 -0.019946527 0.031082012 0.033503376 0.1828533 0.09878225 -0.04353907 0.1701303
0.08583627 0.10524468 -0.058425233 0.049142502 -0.037715796 0.03674429 0.24091151 0.03242574
0.101726286 0.17076832 0.07818847 0.16194594 0.087275065 0.017263636 0.0300114 0.15079887
0.15750457 0.08330385 0.02272353 0.0598251 0.07491735 0.04123936 0.021706596 -0.015463352
0.099092424 0.029751481 -0.036938876 0.019260533 0.20596766 0.06844502 0.11258092 0.28730085
0.054277804 0.14945243 -0.017442364 0.17066331 0.079417385 0.2087771 0.06917766 0.17682186
0.019299597 -0.009196519 0.3235826 0.039673276 0.053614356 0.026376069 -0.022321276 -0.05124025
0.07673748 -0.018951721 0.04535696 0.035296302 0.043276124 -0.09702521 0.16399755 -0.06838931
0.2083459 0.19953783 -0.078487724 0.06039057 0.17529868 0.15982158 0.18824579 -0.08415918
0.056529585 0.13300417 0.2105782 0.043186627 -0.08753224 -0.03642637 0.10083328 0.09207473
0.08222192 0.13054577 -0.045907866 -0.013037555 0.015052081 0.053669356 0.25808153 0.04939173
0.19428323 0.19495144 0.0049962997 -0.056822434 0.051266927 0.075016834 -0.060581774 -0.06199494
-0.0004704528 -0.06023344 0.048597533 -0.09276879 0.04080061 0.06349 0.11340953 0.061612777
0.039461143 0.0046891016 0.028666383 -0.08633662 0.11549923 0.027854167 -0.10036568 0.00064593286
0.15853748 0.021692246 0.0023190323 0.07148673 0.093168534 0.039455153 0.048731513 0.028297935
0.10210634 -0.05832932 0.062158767 -0.05973893 0.0073521733 -0.050812606 0.11231485 0.11256236
-0.023656208 -0.08611826 0.0025899112 -0.057204917 0.094154894 0.008382219 0.09924699 0.10850152
0.07210452 0.12438278 -0.0030354783 -0.031161414 0.043558944 0.061946996 0.059015736 -0.06848275
0.105228856 0.004687321 0.13489741 0.01061451 0.021646764 -0.06781199 -0.037033014 -0.024230598
0.15267003 -0.03316188 0.025886184 0.018929392 0.0013793431 -0.03786287 0.024956211 -0.0016003773
0.13512805 0.09796074 0.02743885 -0.056900654 0.103411056 0.053571083 0.095075324 0.076776095
0.024496509 0.08012731 0.03542034 0.02563129 -0.0835497 0.023049962 0.07606442 0.075653516
-0.001049401 0.046126287 0.03245468 0.021908116 -0.076253735 0.065596685 -0.04622733 -0.03744548
0.12925489 -0.045290593 0.03504731 -0.053893253 0.07454942 0.029781047 0.072515294 -0.028140154
0.02488267 0.024216846 0.07439021 -0.012146794 0.15610392 0.0014749446 0.10051197 -0.10456747
-0.031828932 0.034648728 0.13550977 0.042237572 -0.10966063 -0.011331599 -0.0037664264 0.13048962
-0.06810502 -0.04737088 0.019408224 0.05121775 0.09417338 0.06995752 -0.04128338 0.0357265
0.10698577 0.010224363 0.081465706 -0.07598251 -0.008676976 -0.05320277 0.027603231 0.020016255
0.085339665 -0.03932586 0.013700766 0.05142079 -0.054803632 -0.04030365 0.090296276 0.07345215
00000000: e851 e5bc 88d3 adbd e5ab 96bd 037f 20bd
00000010: bfd1 943d 4581 8dbd ca0d 76bd adb2 8f3d
00000020: 6d76 f13d d049 b13b d788 573e bf7f f93d
00000030: bc1c e73d f624 483d 0036 1f3c f070 1c3e
00000040: 0e20 033e 4462 833c 42ab 523d b895 63bd
00000050: 9651 76bc 6987 383d c8e4 573e 81f1 8f3d
00000060: d1b6 d9bd e666 a3bc b49f fe3c d63a 093d
00000070: e53d 3b3e 594e ca3d 0656 32bd a336 2e3e
00000080: edca af3d 868a d73d 4c4f 6fbd a649 493d
00000090: e17b 1abd 2e81 163d 82b1 763e dad0 043d
000000a0: df55 d03d e4dd 2e3e 4721 a03d 28d5 253e
000000b0: 45bd b23d 786c 8d3c 78da f53c 056b 1a3e
000000c0: e148 213e 359b aa3d b226 ba3c 2a0b 753d
000000d0: 456e 993d 9aea 283d 08d2 b13c 005a 7dbc
000000e0: f8f0 ca3d 61b9 f33c 384d 17bd 44c8 9d3c
000000f0: 30e9 523e e72c 8c3d d390 e63d 1919 933e
00000100: 6752 5e3d 0f0a 193e 4ae3 8ebc 5dc2 2e3e
00000110: 95a5 a23d aac9 553e 04ad 8d3d ca10 353e
00000120: 301a 9e3c ffac 16bc 9eac a53e 7280 223d
00000130: ba9a 5b3d a012 d83c 1cdb b6bc 4ce1 51bd
00000140: 8a28 9d3d a440 9bbc 38c8 393d db92 103d
00000150: 4e42 313d 27b5 c6bd f9ee 273e b20f 8cbd
00000160: a158 553e a553 4c3e 2cbe a0bd 1a5c 773d
00000170: 7f81 333e 45a8 233e 81c3 403e a65b acbd
00000180: 918b 673d 3f32 083e d0a1 573e 76e4 303d
00000190: 1a44 b3bd d133 15bd ae81 ce3d ad91 bc3d
000001a0: f763 a83d caad 053e e309 3cbd 789b 55bc
000001b0: 019d 763c 66d4 5b3d 4323 843e fc4e 4a3d
000001c0: 2ff2 463e 5aa1 473e 00b8 a33b a4be 68bd
000001d0: 45fd 513d 6da2 993d 9824 78bd 68ee 7dbd
000001e0: 1ba7 f6b9 57b7 76bd 350e 473d 90fd bdbd
000001f0: 8a1e 273d 0c07 823d 4143 e83d ae5d 7c3d
00000200: 02a2 213d 09a7 993b c3d5 ea3c 41d1 b0bd
00000210: dc8a ec3d 6c2e e43c 868c cdbd d253 293a
00000220: a657 223e f0b3 b13c e8fa 173b a267 923d
00000230: 25cf be3d ba9b 213d b29a 473d 12d1 e73c
00000240: 211d d13d baea 6ebd 319a 7e3d cfb0 74bd
00000250: 80ea f03b e120 50bd 5405 e63d 1887 e63d
00000260: aaca c1bc c55e b0bd 80bb 293b b44f 6abd
00000270: 48d4 c03d 9355 093c 0242 cb3d 0b36 de3d
00000280: 89ab 933d 66bc fe3d e0ee 46bb 3946 ffbc
00000290: dd6a 323d 22bc 7d3d 7cba 713d af40 8cbd
000002a0: 3a82 d73d 1998 993b 8c22 0a3e 7be8 2d3c
000002b0: 8e54 b13c 03e1 8abd eeaf 17bd 3f7f c6bc
000002c0: 8855 1c3e c0d4 07bd 430f d43c d011 9b3c
000002d0: 13cb b43a 1916 1bbd f870 cc3c c0c3 d1ba
000002e0: 025f 0a3e a49f c83d 70c7 e03c a910 69bd
000002f0: 2dc9 d33d 5a6d 5b3d dab6 c23d c93c 9d3d
00000300: e7ac c83c c919 a43d eb14 113d b6f8 d13c
00000310: 1b1c abbd 46d3 bc3c aac7 9b3d 3bf0 9a3d
00000320: 0e8c 89ba ebee 3c3d 33ef 043d a678 b33c
00000330: eb2a 9cbd 8e57 863d de58 3dbd 6e60 19bd
00000340: 655b 043e a182 39bd c58d 0f3d 2cbf 5cbd
00000350: 5ead 983d 62f7 f33c e682 943d 2e86 e6bc
00000360: bed6 cb3c 6862 c63c e559 983d 5903 47bc
00000370: b5d9 1f3e ee52 c13a 38d9 cd3d 7827 d6bd
00000380: 0e5f 02bd d3eb 0d3d 13c3 0a3e 4e01 2d3d
00000390: c195 e0bd 2ca8 39bc 26d6 76bb 129f 053e
000003a0: a57a 8bbd f807 42bd fffd 9e3c b4c9 513d
000003b0: f9dd c03d e345 8f3d c318 29bd f355 123d
000003c0: 5b1b db3d 1684 273c 7ed7 a63d b89c 9bbd
000003d0: e029 0ebc 26eb 59bd 2c20 e23c 21f9 a33c
000003e0: 90c6 ae3d 2714 21bd 2d79 603c 9b9e 523d
000003f0: c679 60bd 7115 25bd 41ed b83d 156e 963d

model.4.bias f4 [128]
-0.00066120987 0.09225063 0.06553858 0.0641563 0.03145332 0.07420013 0.072530985 0.006050523
0.03525471 -0.033029668 0.09563315 0.035883036 0.10363306 0.073642336 -0.07321742 0.11659591
-0.015570151 -0.08098274 0.058838136 -0.010762058 -0.041507997 -0.08511751 -0.018938094 0.10751787
0.086820185 -0.085198954 0.011057089 0.0026894733 0.105046086 -0.013938476 -0.027637934 0.0040744394
0.10210361 0.107838005 0.009086045 0.08999313 -0.036668878 0.1038075 -0.09194592 0.09626163
0.017139867 -0.076627 0.080465995 -0.07190621 -0.016013324 -0.011104687 -0.04803981 -0.05673134
0.0158183 0.1374692 -0.051758002 -0.056679185 0.061755262 0.10879206 -0.072752856 0.012485009
0.12861073 -0.07275979 0.0958564 0.08516562 -0.0823525 0.096963234 0.013093994 0.055543054
-0.0711444 0.031001091 0.08236262 0.05157749 -0.054874826 -0.080299094 -0.07025117 0.08349092
0.12623104 0.123113945 0.00047454238 0.028586023 0.019234171 -0.0025045362 0.06960172 -0.006691697
0.0845773 0.042653866 0.05624127 -0.02341251 0.023724707 -0.016350241 -0.06191484 0.100106195
0.112037055 0.07528141 0.07100409 0.062255207 0.07912149 0.05528571 -0.0012215758 -0.042975713
-0.0848633 0.07097924 -0.06698052 0.022408053 -0.093296506 0.08969625 -0.068733744 -0.08555126
0.062667534 0.04885543 -0.015201871 0.018323723 -0.06421954 0.08091598 0.06568703 0.02805519
0.08627465 -0.0003835851 0.109006986 -0.0075910096 -0.079246305 0.10629462 0.005561637 0.05327992
-0.009060567 -0.032254353 0.009613349 -0.041485067 0.11033689 0.07869553 0.0111385705 0.06820257
00000000: 0b55 2dba e6ed bc3d 1739 863d 6164 833d
00000010: 32d5 003d 3df6 973d 208b 943d 7743 c63b
00000020: 3e67 103d 1e4a 07bd 50db c33d 17fa 123d
00000030: 923d d43d cbd1 963d 04f3 95bd d6c9 ee3d
00000040: f219 7fbc 47da a5bd 4200 713d 5853 30bc
00000050: 4a04 2abd 1752 aebd 1024 9bbc 5432 dc3d
00000060: c8ce b13d ca7c aebd cb28 353c e041 303b
00000070: 6722 d73d 355e 64bc f368 e2bc e082 853b
00000080: b31b d13d 2cda dc3d a3dd 143c 514e b83d
00000090: 1b32 16bd 0799 d43d 244e bcbd d124 c53d
000000a0: e868 8c3c 9eee 9cbd 5bcb a43d 9043 93bd
000000b0: 602e 83bc 6ff0 35bc 64c5 44bd 1f5f 68bd
000000c0: 6195 813c bac4 0c3e 3300 54bd 6f28 68bd
000000d0: 16f3 7c3d 5fce de3d 73ff 94bd ec8d 4c3c
000000e0: 88b2 033e 1603 95bd 5c50 c43d 506b ae3d
000000f0: 6da8 a8bd a994 c63d 3188 563c 1d81 633d
00000100: 28b4 91bd 00f6 fd3c bcad a83d eb42 533d
00000110: 6dc4 60bd da73 a4bd d8df 8fbd 4afd aa3d
00000120: b642 013e 2a23 fc3d 00cc f839 3c2d ea3c
00000130: fb90 9d3c 2523 24bb 598b 8e3d 0646 dbbb
00000140: dd36 ad3d d2b5 2e3d 3f5d 663d 98cb bfbc
00000150: 515a c23c f1f0 85bc 6a9a 7dbd 7a04 cd3d
00000160: af73 e53d 242d 9a3d 986a 913d 51ff 7e3d
00000170: 730a a23d 4573 623d 481d a0ba 4d07 30bd
00000180: cfcc adbd 905d 913d 152d 89bd 1891 b73c
00000190: 3d12 bfbd abb2 b73d 47c4 8cbd 8035 afbd
000001a0: d657 803d a21c 483d 4511 79bc a21b 963c
000001b0: 8985 83bd 47b7 a53d ec86 863d ffd3 e53c
000001c0: c4b0 b03d ec1b c9b9 0e3f df3d 01be f8bb
000001d0: e34b a2bd feb0 d93d 653e b63b 0c3c 5a3d
000001e0: c672 14bc 241d 04bd 4f81 1d3c 3fec 29bd
000001f0: 4ff8 e13d 1f2b a13d 8d7e 363c caad 8b3d

model.6.weight f4 [128, 128]
0.26323724 0.047455132 0.09226563 0.13283294 -0.018306138 -0.005536857 0.027102828 -0.08179667
0.03396172 -0.08635321 0.12758073 -0.029994698 0.023086198 -0.016994914 -0.0057776943 0.082816765
0.079618394 -0.06763724 0.014495674 -0.058733895 -0.01233314 -0.082081094 -0.032297086 0.027201189
0.03888344 0.013653927 0.08266898 0.06311319 0.10977801 0.08363094 -0.08036456 0.056876116
-0.064340316 0.14682667 -0.0059087584 0.13375717 -0.013438895 0.07873355 0.061526693 0.09697031
0.08781906 0.016664729 -0.029622715 0.013273105 0.08019813 0.022113986 -0.06743624 0.048014276
0.07141898 -0.018064693 -0.032150403 -0.061539028 0.12408501 0.06793575 0.007929819 -0.05030788
0.06847229 0.041610293 0.011615912 -0.027664842 0.03665171 0.10446516 0.02842773 0.008476815
0.02815295 -0.02342677 0.018341318 0.0033009474 -0.024394207 -0.047065005 -0.036698155 0.06847526
0.03182795 0.018985694 0.05561056 -0.01205489 0.117117 0.05465872 -0.041540913 0.017883305
0.117794745 0.028806824 0.04938862 0.0129200965 -0.042889368 -0.04989651 0.08816408 -0.06727746
0.081131384 0.12346395 -0.065760285 0.087031364 0.06760409 -0.081973985 0.061995976 -0.05817145
0.009968005 -0.041215673 -0.0738489 0.06678737 -0.033255287 0.042158473 -0.0071912333 0.030762099
0.12694676 0.04687305 0.03399753 0.10222052 0.040835354 0.12495053 0.0812148 0.00385115
0.08039626 0.095744796 0.104649834 0.022723123 -0.021506555 0.114874884 0.054818653 0.14834943
-0.031264383 0.051170137 -0.036728438 -0.033266075 0.101692416 0.092608295 -0.01074345 0.100135736
-0.022162352 0.06152271 -0.052920546 -0.026861036 0.04267284 -0.00804502 -0.09839014 0.15693119
-0.09333988 -0.025632724 -0.04437578 -0.026122794 0.058409285 0.18561718 0.048344493 -0.067727536
-0.036052193 0.03222603 0.13767701 0.054794468 0.06996394 -0.0637853 0.058048733 0.04735587
0.17932533 -0.03209596 -0.060712796 0.06825333 0.08873726 0.083878 0.04855936 0.03341198
0.20389801 0.01562532 0.0037583127 -0.11577429 0.02766075 -0.07872263 -0.0784118 -0.034682106
0.004872203 0.11342226 -0.028134918 0.01790177 -0.030827736 0.058074854 -0.017441861 -0.03340983
-0.06319679 0.11502385 0.03694388 0.07913329 0.00835072 0.025585696 0.00033693016 0.014009338
0.04734119 -0.01331532 -0.069781676 0.14225672 0.078602396 0.06342191 -0.023149485 0.03071184
-0.056431647 0.073802516 -0.101382524 0.023200443 -0.0077308714 0.07687745 0.034091633 -0.11054421
0.10041367 0.12908433 -0.060693663 -0.07796615 0.09703299 0.00011693931 0.19909596 -0.08215289
-0.023030134 0.0021383418 0.15369418 -0.039170418 0.12830086 0.096529774 -0.07151815 0.16593719
0.08086683 0.011331666 0.18706189 0.027990224 0.08479102 0.10351351 0.0028972824 0.15063262
-0.03349079 0.17555621 -0.042138778 -0.08520448 0.051302057 0.1340938 -0.03373595 -0.008908421
0.01635239 -0.0318121 0.04042161 -0.065159716 -0.014378934 -0.035449795 -0.041744344 0.028539442
0.13521406 0.012051618 0.028358674 0.06730595 -0.07349418 -0.033002213 0.051107135 -0.06815261
-0.018670488 -0.04335121 -0.0112053715 0.08613334 0.10247346 -0.08312375 0.1453364 0.07528599
00000000: 08c7 863e 5060 423d c3f5 bc3d 5c05 083e
00000010: c1f6 95bc 866e b5bb c006 de3c 0385 a7bd
00000020: 721b 0b3d f4d9 b0bd 86a4 023e 71b7 f5bc
00000030: 441f bd3c eb38 8bbc d052 bdbb d69b a93d
00000040: f80e a33d 6585 8abd 437f 6d3c f492 70bd
00000050: f010 4abc 221a a8bd f349 04bd 07d5 de3c
00000060: 3e44 1f3d b8b4 5f3c 5b4e a93d 7d41 813d
00000070: 4bd3 e03d b346 ab3d 2d96 a4bd eef6 683d
00000080: dbc4 83bd bb59 163e 429e c1bb a4f7 083e
00000090: d02e 5cbc 0e3f a13d 6a03 7c3d 5f98 c63d
000000a0: 7bda b33d 7884 883c 56ab f2bc 7077 593c
000000b0: eb3e a43d 6428 b53c 031c 8abd 9eaa 443d
000000c0: 1d44 923d 68fc 93bc 24b0 03bd 5910 7cbd
000000d0: 4820 fe3d e621 8b3d 12ec 013c a30f 4ebd
000000e0: 333b 8c3d 8e6f 2a3d ab50 3e3c 61a1 e2bc
000000f0: 1a20 163d d4f1 d53d 45e1 e83c 57e2 0a3c
00000100: 04a1 e63c 7fe9 bfbc 8840 963c b554 583b
00000110: 5cd6 c7bc 3cc7 40bd ce50 16bd c23c 8c3d
00000120: 065e 023d e387 9b3c e6c7 633d e081 45bc
00000130: 0adb ef3d d2e1 5f3d ce26 2abd 0280 923c
00000140: 5f3e f13d 4afc eb3c b94b 4a3d d0ae 533c
00000150: c3ac 2fbd 4860 4cbd 5f8f b43d c4c8 89bd
00000160: 3628 a63d abda fc3d 54ad 86bd 803d b23d
00000170: 0374 8a3d fae1 a7bd 7eef 7d3d 3045 6ebd
00000180: d850 233c c4d1 28bd 183e 97bd d1c7 883d
00000190: b236 08bd 5dae 2c3d 70a4 ebbb cc00 fc3c
000001a0: 55fe 013e f5fd 3f3d fe40 0b3d fe58 d13d
000001b0: f942 273d 10e6 ff3d f253 a63d 9363 7c3b
000001c0: cba6 a43d d915 c43d a752 d63d d825 ba3c
000001d0: 842e b0bc 8643 eb3d 8689 603d eae8 173e
000001e0: 150f 00bd c797 513d 8f70 16bd 0242 08bd
000001f0: 1d44 d03d 6ba9 bd3d 4c05 30bc f713 cd3d
00000200: d28d b5bc 3dff 7b3d 37c3 58bd ad0b dcbc
00000210: b7c9 2e3d 42cf 03bc c580 c9bd 92b2 203e
00000220: fb28 bfbd b8fb d1bc 61c3 35bd 78ff d5bc
00000230: 933e 6f3d 6e12 3e3e e004 463d bcb4 8abd
00000240: 77ab 13bd 71ff 033d 34fb 0c3e 2a70 603d
00000250: 4149 8f3d dea1 82bd 82c4 6d3d 3bf8 413d
00000260: 0fa1 373e 0e77 03bd fbad 78bd 67c8 8b3d
00000270: e1bb b53d 3bc8 ab3d 2ee6 463d 00db 083d
00000280: a4ca 503e ac00 803c 064e 763b 121b edbd
00000290: cc98 e23c 5539 a1bd 5e96 a0bd d30e 0ebd
000002a0: 00a7 9f3b ee49 e83d 337b e6bc bca6 923c
000002b0: 738a fcbc e6df 6d3d 3ce2 8ebc bfd8 08bd
000002c0: 526d 81bd a091 eb3d 7752 173d a210 a23d
000002d0: 75d1 083c 1899 d13c 00a6 b039 6c87 653c
000002e0: d6e8 413d 8028 5abc b2e9 8ebd bfab 113e
000002f0: 4bfa a03d 59e3 813d fda3 bdbc 6697 fb3c
00000300: df24 67bd c625 973d a4a1 cfbd db0e be3c
00000310: 4053 fdbb ed71 9d3d aba3 0b3d 0165 e2bd
00000320: afa5 cd3d af2e 043e eb99 78bd b8ac 9fbd
00000330: 3bb9 c63d 503d f538 d0df 4b3e c63f a8bd
00000340: b1a9 bcbc 6c23 0c3b 0262 1d3e 2971 20bd
00000350: 4d61 033e 67b1 c53d 1c78 92bd 70eb 293e
00000360: 829d a53d 74a8 393c 278d 3f3e c14b e53c
00000370: eaa6 ad3d e4fe d33d 55e0 3d3b 703f 1a3e
00000380: a32d 09bd 02c5 333e b699 2cbd b07f aebd
00000390: 1b22 523d e34f 093e b52e 0abd a0f4 11bc
000003a0: 73f5 853c 684d 02bd 2191 253d 7572 85bd
000003b0: 9f95 6bbc ce33 11bd 1efc 2abd 8ccb e93c
000003c0: 8e75 0a3e 2674 453c 7350 e83c b4d7 893d
000003d0: 1e84 96bd 542d 07bd b755 513d 9893 8bbd
000003e0: daf2 98bc 0a91 31bd bc96 37bc ad66 b03d
000003f0: 9bdd d13d c93c aabd 11d3 143e 8b2f 9a3d

model.6.bias f4 [128]
0.00020506201 0.114700325 0.011107087 0.01739804 0.0052141533 0.07631802 -0.013732918 0.043908704
-0.060834628 -0.017851362 -0.016595116 -0.08117585 0.028971292 -0.08410977 0.056404795 -0.05991728
0.036422413 0.05130462 0.03689894 -0.017222615 0.049572736 -0.026777685 -0.039107975 0.039574243
0.019273484 -0.04355554 -0.034833193 -0.049063735 0.008794258 0.029511053 -0.07454923 0.106638305
0.009703586 -0.01122275 0.12272055 -0.053779442 -0.002748282 0.013187685 0.037905477 0.096395455
-0.0061691147 0.059068035 0.06854597 0.058785114 -0.004661368 0.00396491 0.0872356 -0.039167106
0.0035097965 0.0185375 0.0471374 0.046958536 0.03842671 -0.10207833 0.06473491 0.058323506
-0.04768849 -0.06792626 -0.037915904 0.0032170957 -0.047983818 -0.07190026 0.101622395 -0.0838442
-0.060985208 -0.009474888 0.08505794 0.069999516 -0.015661119 -0.035785668 -0.079692684 0.11383653
-0.07817356 -0.09632268 0.03355428 0.04958335 0.009095158 -0.04188169 0.020785788 0.048590988
0.0103196725 -0.021244012 0.11767724 0.049773216 0.024521885 0.095908046 -0.039152548 0.014622647
-0.0019577446 -0.040196225 0.12099112 -0.0931812 0.10123855 0.06670977 -0.00825225 -0.01734258
0.02367453 -0.09157776 -0.06010923 -0.0897678 -0.02514395 0.007077869 0.0026195024 -0.08638186
-0.07303222 9.946525e-05 -0.030524507 -0.06687334 -0.0281589 0.024205828 -0.084105425 0.028125176
-0.06578572 -0.064426616 -0.022607144 0.033189587 0.052515402 0.076270886 -0.09748903 -0.036213506
0.11428682 0.059439037 -0.015001806 0.071760595 0.062423665 -0.10755595 -0.02387458 0.09143838
00000000: ea05 5739 01e8 ea3d 80fa 353c 5686 8e3c
00000010: 7ddb aa3b 9f4c 9c3d 0800 61bc 9dd9 333d
00000020: bb2d 79bd 053d 92bc 7bf2 87bc 863f a6bd
00000030: 3455 ed3c be41 acbd b708 673d d26b 75bd
00000040: ab2f 153d cb24 523d 5823 173d 7116 8dbc
00000050: c80c 4b3d e05c dbbc af2f 20bd 9a18 223d
00000060: 6de3 9d3c 4b67 32bd 40ad 0ebd 0ef7 48bd
00000070: cb15 103c 2ac1 f13c 44ad 98bd 2f65 da3d
00000080: cafb 1e3c a0df 37bc e954 fb3d d547 5cbd
00000090: 851c 34bb 2911 583c c642 1b3d fb6a c53d
000000a0: 4926 cabb 53f1 713d d461 8c3d a9c8 703d
000000b0: 64be 98bb 13ec 813b 94a8 b23d b06d 20bd
000000c0: 9d04 663b f5db 973c 2513 413d 9857 403d
000000d0: 5365 1d3d 720e d1bd bd93 843d a1e4 6e3d
000000e0: 0255 43bd ec1c 8bbd b54d 1bbd e9d5 523b
000000f0: ae8a 44bd 7240 93bd 671f d03d 82b6 abbd
00000100: a0cb 79bd 903c 1bbc db32 ae3d e85b 8f3d
00000110: bf4b 80bc fe93 12bd eb35 a3bd 2023 e93d
00000120: 7619 a0bd d344 c5bd 3670 093d e917 4b3d
00000130: dc03 153c 238c 2bbd f546 aa3c 5807 473d
00000140: d813 293c ec07 aebc c400 f13d 00df 4b3d
00000150: 1fe2 c83c 706b c43d 6c5e 20bd d493 6f3c
00000160: 814d 00bb cca4 24bd 31ca f73d c9d5 bebd
00000170: 2856 cf3d 229f 883d 7234 07bc 0712 8ebc
00000180: 17f1 c13c 1f8d bbbd 1935 76bd 2ed8 b7bd
00000190: affa cdbc 78ed e73b f5ab 2b3b f9e8 b0bd
000001a0: eb91 95bd 0098 d038 880e fabc e4f4 88bd
000001b0: 7ead e6bc 4d4b c63c 773f acbd c566 e63c
000001c0: aaba 86bd 1af2 83bd 9e32 b9bc cef1 073d
000001d0: 641a 573d e933 9c3d 54a8 c7bd 9d54 14bd
000001e0: 350f ea3d 5976 733d 23ca 75bc 38f7 923d
000001f0: f5af 7f3d 4b46 dcbd a094 c3bc 0c44 bb3d

model.8.weight f4 [128, 128]
0.07640519 0.081178986 0.064289466 -0.006759849 0.07273265 0.032114476 -0.04397879 -0.07078932
-0.07460786 -0.0024627373 -0.086674474 -0.0118395835 0.04593549 0.0128990635 -0.032836862 0.023675643
-0.057583556 -0.067195565 0.04457474 -0.039585356 -0.058406357 -0.058313854 0.07333877 -0.03566024
-0.018459884 -0.052301165 0.0035273903 0.042393275 -0.07197965 -0.044339783 0.080366574 -0.010271452
-0.047993418 0.04896129 -0.07379016 -0.033292573 -0.07541704 -0.013821192 -0.08032499 0.018191772
0.045872025 0.07542382 0.04888036 0.0046005994 -0.051354628 0.049256288 0.018189674 -0.08108111
0.0032758862 0.03574519 0.019637398 0.039392315 0.034036443 0.005686857 0.021197181 -0.013895921
0.08482429 0.0063335747 -0.06811787 0.0045145554 -0.058370538 -0.07427308 -0.024890773 0.068113945
-0.03634291 -0.06539225 0.028538419 0.06504976 0.0034611984 0.06175094 -0.028722644 0.055308256
0.06878164 -0.07725513 -0.0468567 -0.051943295 -0.07854733 -0.033870302 0.030272879 -0.01617235
0.007865946 -0.005206744 0.074424215 -0.062904716 0.036533054 -0.017519169 -0.046836887 -0.060033888
-0.019623486 -0.060292386 0.07577071 0.031460628 -0.023119576 -0.016008792 0.050900526 0.077082776
-0.071679674 -0.081925824 -0.074159704 0.03917902 -0.084949635 -0.020402119 0.0605626 -0.03879511
0.02835992 -0.07611045 -0.077713735 -0.055925462 0.01806344 0.08411216 0.053707816 -0.025105037
0.045227103 0.030000865 -0.058398083 -0.01108326 -0.0030245318 -0.080264494 -0.05106428 0.013433181
-0.023384608 0.035310585 0.0571113 0.072731875 0.028840244 -0.024273694 -0.069238245 -0.06438596
0.03989782 0.07152035 -0.029280353 -0.0649429 -0.07228078 0.033805706 0.016961 -0.067184016
-0.0009884611 0.08227978 -0.08727132 -0.07463885 0.0072807968 0.0053226277 -0.023578897 -0.06518933
0.036427416 -0.0014571026 0.06779402 0.025453724 -0.062419005 -0.06423127 -0.016233057 -0.022441491
-0.047506925 -0.027410477 0.018871717 -0.0022120848 0.0692294 -0.0809117 -0.026276242 -0.0052765757
-0.07501148 -0.0018875673 -0.0034082904 -0.08450738 -0.04954069 -0.07093557 -0.06277019 -0.062252477
0.050566413 0.0054274425 0.049096383 -0.023935944 -0.07897676 0.068962045 -0.035751168 0.055034332
0.039135747 0.085461624 -0.041069172 -0.032689612 -0.009635687 0.059428655 0.08818931 0.017531663
-0.072427355 0.02875103 -0.06472808 -0.02665199 0.006948717 0.06536276 -0.0048227906 -0.07135609
-0.0755887 -0.03410738 -0.030111596 0.04961344 -0.07896253 -0.083670765 -0.020927608 -0.05622125
-0.06256497 0.08696344 0.07264646 -0.07960066 0.07192778 0.067115046 0.0007060468 0.0030825064
0.0006907955 -0.050105825 -0.03729836 -0.053894028 -0.08118487 -0.00095107406 0.07299162 -0.02976973
-0.023093425 0.042888664 -0.083498724 -0.0031653345 0.035732172 -0.029767487 0.074544735 -0.021361277
0.085164435 -0.051550347 0.0065468475 0.0018972605 -0.009865262 -0.0023803264 0.025934875 -0.08642938
-0.07793898 0.08396294 0.0098402575 0.044024847 -0.002682671 0.0012813807 0.025101557 -0.07007499
-0.03879038 -0.013765909 0.046783693 -0.019582406 -0.052340906 -0.04727932 0.07457442 -0.028020583
-0.053119283 0.030362695 0.008095376 -0.042531606 -0.073753804 -0.058477454 0.08249914 0.07091575
00000000: 537a 9c3d 2b41 a63d 32aa 833d b981 ddbb
00000010: dbf4 943d 788a 033d 1b23 34bd fef9 90bd
00000020: 01cc 98bd e065 21bb 6382 b1bd d0fa 41bc
00000030: da26 3c3d 9856 533c f27f 06bd 6cf3 c13c
00000040: bcdc 6bbd d49d 89bd 0194 363d 4124 22bd
00000050: 813b 6fbd 82da 6ebd a332 963d 7910 12bd
00000060: 2f39 97bc bf39 56bd ca2b 673b 92a4 2d3d
00000070: 116a 93bd a29d 35bd 3b97 a43d 9849 28bc
00000080: bf94 44bd a28b 483d 4c1f 97bd cb5d 08bd
00000090: 4074 9abd 4872 62bc 6e81 a4bd e906 953c
000000a0: 4ee4 3b3d ce77 9a3d c636 483d a0c0 963b
000000b0: 3b59 52bd f6c0 493d 8302 953c da0d a6bd
000000c0: 40b0 563b 8c69 123d 9cde a03c d659 213d
000000d0: cc69 0b3d d058 ba3b b6a5 ad3c b8ab 63bc
000000e0: 5bb8 ad3d e089 cf3b 6281 8bbd d6ee 933b
000000f0: f215 6fbd 7c1c 98bd bce7 cbbc 537f 8b3d
00000100: 4edc 14bd 5fec 85bd 67c9 e93c cf38 853d
00000110: 46d5 623b 8eee 7c3d c04b ebbc e98a 623d
00000120: 63dd 8c3d f037 9ebd d0ec 3fbd 7ec2 54bd
00000130: 6cdd a0bd 96bb 0abd d4fe f73c e07b 84bc
00000140: 2be0 003c 569d aabb b96b 983d 30d4 80bd
00000150: afa3 153d 5c84 8fbc 09d8 3fbd 18e6 75bd
00000160: 6fc1 a0bc 26f5 76bd ad2d 9b3d dcdc 003d
00000170: 4465 bdbc df24 83bc 127d 503d 93dd 9d3d
00000180: cbcc 92bd bac8 a7bd 0be1 97bd 2e7a 203d
00000190: 13fa adbd 5822 a7bc 7d10 783d 9fe7 1ebd
000001a0: 1053 e83c ccdf 9bbd 6128 9fbd 1912 65bd
000001b0: c8f9 933c ff42 ac3d bafc 5b3d 14a9 cdbc
000001c0: 0e40 393d 60c4 f53c d432 6fbd 9096 35bc
000001d0: 3937 46bb b661 a4bd c728 51bd d816 5c3c
000001e0: 1491 bfbc d5a1 103d 8aed 693d 73f4 943d
000001f0: 6042 ec3c a0d9 c6bc c8cc 8dbd c9dc 83bd
00000200: e66b 233d 4379 923d 5add efbc c800 85bd
00000210: f207 94bd da77 0a3d ccf1 8a3c c697 89bd
00000220: 408f 81ba 4d82 a83d 4ebb b2bd 41dc 98bd
00000230: c093 ee3b 7069 ae3b 8828 c1bc fc81 85bd
00000240: ea34 153d 40fc beba 97d7 8a3d 5484 d03c
00000250: 12ab 7fbd af8b 83bd 30fb 84bc 38d7 b7bc
00000260: 9f96 42bd f08b e0bc dc98 9a3c a0f8 10bb
00000270: 25c8 8d3d 09b5 a5bd 4641 d7bc 20e7 acbb
00000280: 9e9f 99bd 4068 f7ba a05d 5fbb 3512 adbd
00000290: 2eeb 4abd ab46 91bd a88d 80bd 74fc 7ebd
000002a0: ba1e 4f3d b0d8 b13b 4a19 493d 5015 c4bc
000002b0: 91be a1bd f93b 8d3d d16f 12bd ae6b 613d
000002c0: ce4c 203d 8106 af3d 2638 28bd 8be5 05bd
000002d0: 00df 1dbc 766b 733d 999c b43d 909e 8f3c
000002e0: cb54 94bd 4887 eb3c 2890 84bd 4655 dabc
000002f0: 10b2 e33b e9dc 853d 8008 9ebb 2423 92bd
00000300: 40ce 9abd 2eb4 0bbd 98ac f6bc 7637 4b3d
00000310: 1bb7 a1bd 945b abbd 6070 abbc 4148 66bd
00000320: 1022 80bd e319 b23d abc7 943d ac05 a3bd
00000330: df4e 933d 9d73 893d 0016 393a e003 4a3b
00000340: 8016 353a c43b 4dbd 2ac6 18bd fcbf 5cbd
00000350: 4144 a6bd 8051 79ba a17c 953d a6df f3bc
00000360: 6c2e bdbc 06ac 2f3d 6101 abbd 8071 4fbb
00000370: e65b 123d f2da f3bc e9aa 983d d8fd aebc
00000380: b16a ae3d 7526 53bd f086 d63b 80ad f83a
00000390: e8a1 21bc 40ff 1bbb 6075 d43c e301 b1bd
000003a0: 799e 9fbd c3f4 ab3d 0839 213c 6653 343d
000003b0: c0cf 2fbb 00f4 a73a c8a1 cd3c 7a83 8fbd
000003c0: a9e2 1ebd 688a 61bc 42a0 3f3d 486b a0bc
000003d0: 6b63 56bd f6a7 41bd 79ba 983d 6c8b e5bc
000003e0: 9b93 59bd 30bb f83c 78a2 043c 9f35 2ebd
000003f0: 3c0c 97bd 0e86 6fbd 4ff5 a83d 473c 913d

model.8.bias f4 [128]
-0.036686946 -0.05153427 -0.02955498 0.04630549 0.089142404 0.0722985 -0.08400672 0.04860052
0.10385443 0.00092389504 -0.033819653 -0.0013603353 0.075972095 0.077334404 0.101269975 0.08489492
-0.0035652693 0.07741796 0.057793435 -0.0047403537 0.004841445 -0.10321472 0.053986173 0.08782327
0.072383605 0.03143774 -0.0171861 0.030820373 0.04663288 0.060112897 0.059577458 0.028513677
0.010997321 0.08196163 0.100616075 -0.093018696 -0.08998638 -0.05088314 0.081368394 0.02130347
-0.082859255 -0.08621185 -0.014053233 0.019752251 -0.0877992 -0.023938874 -0.0031389892 -0.022914471
0.02488452 0.06623064 -0.032452375 -0.0338689 0.018392969 0.037754044 -0.04559734 0.031565208
-0.063781224 0.019121159 0.037871413 -0.047461495 0.101878986 0.06537219 -0.058310006 -0.018993614
0.04940925 0.04362774 0.025713647 -0.008899604 0.062554926 -0.015362329 0.032808226 -4.238721e-05
0.058877084 -0.040990915 0.034470454 0.029436674 -0.029953664 0.036921833 0.0349077 0.1203005
0.035992917 -0.014198752 0.018777143 -0.02602739 0.060572635 0.08297591 0.022292089 0.070934765
0.060049374 0.030688047 -0.053655494 -0.072304614 -0.06551112 0.031338997 -0.048578396 0.025223443
0.025696613 -0.06267672 0.011501982 0.04067255 -0.010067075 -0.028706394 -0.02199535 -0.06583508
0.119394876 0.0139823435 0.012929469 0.06154796 0.038291406 -0.05782007 0.018154155 -0.05882624
0.0017279201 0.028715976 -0.04917464 -0.014137 0.0031194792 -0.09018128 0.07267595 0.019496651
0.012259806 0.00871135 -0.080775596 0.078581676 -0.008797137 -0.027171515 0.03473217 -0.11351814
00000000: 0d45 16bd 9915 53bd 491d f2bc d3aa 3d3d
00000010: 4b90 b63d 3c11 943d b70b acbd 5711 473d
00000020: a2b1 d43d 8c31 723a 7a86 0abd 474d b2ba
00000030: 4297 9b3d 8061 9e3d a266 cf3d 63dd ad3d
00000040: 4ba7 69bb 4f8d 9e3d cfb8 6c3d f854 9bbb
00000050: fca4 9e3b 3d62 d3bd 9b20 5d3d b0dc b33d
00000060: db3d 943d dcc4 003d ddc9 8cbc 027b fc3c
00000070: 1e02 3f3d f138 763d 7e07 743d 8495 e93c
00000080: 1c2e 343c 80db a73d cd0f ce3d 9680 bebd
00000090: c74a b8bd d76a 50bd 79a4 a63d 9d84 ae3c
000000a0: 1db2 a9bd d78f b0bd 883f 66bc 79cf a13c
000000b0: 11d0 b3bd 751b c4bc 80b7 4dbb 21b7 bbbc
000000c0: 9fda cb3c eea3 873d c8ec 04bd 1eba 0abd
000000d0: daac 963c fca3 1a3d 47c4 3abd 854a 013d
000000e0: bb9f 82bd faa3 9c3c 0e1f 1b3d fc66 42bd
000000f0: eea5 d03d dbe1 853d 79d6 6ebd 7f98 9bbc
00000100: 5b61 4a3d 00b3 323d 6da5 d23c a5cf 11bc
00000110: cc1c 803d 47b2 7bbc eb61 063d ecc8 31b8
00000120: 1929 713d 17e6 27bd e430 0d3d 2e25 f13c
00000130: 6361 f5bc 593b 173d 60fb 0e3d 1c60 f63d
00000140: 4f6d 133d e2a1 68bc 86d2 993c 6537 d5bc
00000150: 031b 783d 46ef a93d e69d b63c 3f46 913d
00000160: 55f6 753d 8065 fb3c ddc5 5bbd 7114 94bd
00000170: b22a 86bd 525d 003d 24fa 46bd 65a1 ce3c
00000180: b481 d23c a75c 80bd cf72 3c3c 4398 263d
00000190: 5ff0 24bc ac29 ebbc 982f b4bc 8bd4 86bd
000001a0: 4d85 f43d 3316 653c 20d6 533c b719 7c3d
000001b0: 73d7 1c3d bdd4 6cbd 06b8 943c c9f3 70bd
000001c0: 617b e23a c43d eb3c 596b 49bd e09e 67bc
000001d0: 2d70 4c3b f7b0 b8bd 21d7 943d 71b7 9f3c
000001e0: 5add 483c 0dba 0e3c ad6d a5bd 6eef a03d
000001f0: de21 10bc cc96 debc 5243 0e3d 337c e8bd
