src/sentiment-classification/results/modelo_mlp_3_camadas.pt (torch, 515331 bytes, 8 tensors)

model.0.weight f4 [128, 736]
-0.04473298 0.012998986 -0.014763984 -0.016048297 0.005440028 0.012260769 -0.05042041 0.029590104
-0.024372002 0.028456463 0.041207425 0.022087619 0.067996 -0.017680416 -0.03833998 -0.051852174
-0.006739986 0.0027299356 -0.002047378 -0.007903427 -0.034810036 0.0054498836 -0.017641725 -0.035787567
-0.048937693 -0.021963798 -0.0234286 0.052639946 -0.0040710703 0.0040166536 0.022867277 -0.006800898
0.03581563 -0.014403858 0.014131901 -0.06337313 -0.031603385 -0.014806121 0.01596865 -0.06578405
0.07037454 0.021335907 0.025563218 -0.026204031 0.029511027 -0.0045853686 -0.022135247 -0.02381054
0.03023 -0.03406184 0.02196931 0.08377194 0.07344128 0.013309053 0.034168556 -0.0075779688
0.07891551 -0.027756145 0.00526095 -0.0050933757 0.019689098 -0.014126527 -0.008950199 0.041779146
0.062322013 0.00951701 0.0010316409 0.0004028563 0.072054565 -0.010990744 0.011316084 -0.0259893
0.067588046 -0.007777242 0.050461996 0.026772078 -0.04092413 -0.040403515 -0.014699059 -0.035892867
-0.01652344 0.013562454 0.034505133 -0.052442815 0.026163101 -0.0013264732 -0.0006065921 -0.029571969
0.015085991 -0.055936866 -0.01834003 -0.0068290164 0.04107603 0.02640517 -0.0021746273 0.00046929103
0.018909235 0.11600474 0.00049107225 -0.037090868 0.04760317 -0.04289906 -0.037607644 0.054353133
0.043920655 0.024161067 0.03306162 -0.039200097 -0.050896283 -0.038919795 -0.028791606 -0.006853305
-0.055862807 -0.013789179 0.016288383 0.049825933 0.019978963 -0.01885631 -0.06643548 -0.012867479
-0.044635374 0.07481108 -0.026964711 -0.04582502 0.008586301 0.06414683 -0.055012774 -0.017685372
-0.03321524 -0.07830906 0.067108996 -0.046833947 0.008531289 0.011069849 -0.048644383 0.027279437
0.040758323 0.060834873 -0.008059416 -0.0025569722 -0.0012219494 0.02477613 0.020396097 0.05876152
-0.015229594 0.074440934 0.0074482034 0.014671381 0.007892099 0.05546088 0.009642235 -0.004813336
-0.02290527 0.008180374 -0.008428015 -0.0010089204 -0.031553626 0.047755796 -0.041027833 -0.017293835
-0.0011901706 -0.022518223 0.043480434 0.025298964 -0.0224104 -0.027948081 0.0107517885 0.04502444
-0.059256695 0.094322495 0.0025349248 -0.0003716834 -0.0021456995 0.05504726 0.018797385 -0.057283465
0.054708134 -0.03210975 0.030429838 0.011067577 -0.04621833 0.07001957 0.027450033 -0.069009036
0.015787968 -0.033084016 0.047752753 -0.03646393 -0.036191043 0.031269025 0.0011032667 -0.015755
-0.018152522 -0.004993618 0.03573943 0.0046854764 0.029835619 0.030684557 0.1184078 0.0032401606
0.0060078977 0.044932835 -0.016488375 -0.0009867476 -0.0003246678 -0.0024383585 0.047717042 0.018484076
-0.010105856 0.009493202 0.049236044 -0.018609382 -0.01497126 -0.065010585 0.014876895 -0.018655164
-0.002343842 0.037588064 0.0035733846 -0.03937638 0.0024440926 -0.021798566 -0.036586918 0.08656203
0.037418284 0.038111154 -0.025439033 0.015718812 0.0061090915 0.004099282 -0.012043392 0.01658976
-0.023761945 -0.02835389 -0.026613813 -0.041557938 0.02208277 0.0092319725 0.011420793 -0.035594705
-0.054004908 -0.0449133 -0.018882282 -0.00040068472 0.04204432 0.047950108 -0.032138783 0.0031335165
0.04965444 -0.015743379 0.068283595 -0.011664474 0.020965446 -0.006359949 -0.021514239 0.026372083
00000000: ee39 37bd b3f9 543c a3e4 71bc b877 83bc
00000010: 4342 b23b 64e1 483c a285 4ebd f266 f23c
00000020: cba7 c7bc 871d e93c 1ec9 283d 18f1 b43c
00000030: 7d41 8b3d 85d6 90bc 620a 1dbd f262 54bd
00000040: 1adb dcbb b8e8 323b 4e2d 06bb 607d 01bc
00000050: f894 0ebd f094 b23b 6185 90bc fc95 12bd
00000060: e472 48bd 6ced b3bc 56ed bfbc fc9c 573d
00000070: 9d66 85bb 229e 833b 2854 bb3c 11da debb
00000080: 69b3 123d 29fe 6bbc 7d89 673c c6c9 81bd
00000090: 8d72 01bd 5f95 72bc b0d0 823c cab9 86bd
000000a0: 8720 903d a4c8 ae3c f469 d13c d6a9 d6bc
000000b0: 1cc1 f13c dc40 96bb fa54 b5bc 520e c3bc
000000c0: e8a4 f73c 6e84 0bbd fbf8 b33c 9f90 ab3d
000000d0: 6268 963d 370e 5a3c 54f4 0b3d 9c50 f8bb
000000e0: 749e a13d db60 e3bc 0c64 ac3b 55e6 a6bb
000000f0: 084b a13c f372 67bc dba3 12bc 9c20 2b3d
00000100: 5e45 7f3d 3ced 1b3c 2038 873a 7536 d339
00000110: 5891 933d 8612 34bc 1967 393c 83e7 d4bc
00000120: 9a6b 8a3d 3cd8 febb 3db1 4e3d 1e51 db3c
00000130: 0fa0 27bd 287e 25bd 52d4 70bc 6604 13bd
00000140: 2a5c 87bc 0e35 5e3c 4155 0d3d 47ce 56bd
00000150: 0054 d63c 0edd adba b503 1fba ea40 f2bc
00000160: 3b2b 773c 0e1e 65bd d53d 96bc f1c5 dfbb
00000170: 573f 283d a84f d83c 3184 0ebb 2d0b f639
00000180: 8ae7 9a3c e593 ed3d 4dbb 003a 98ec 17bd
00000190: 8bfb 423d edb6 2fbd 790a 1abd 64a1 5e3d
000001a0: 25e6 333d 6eed c53c 9f6b 073d 4890 20bd
000001b0: 9f78 50bd 5d6a 1fbd 60dc ebbc b091 e0bb
000001c0: 66d0 64bd 02ec 61bc 376f 853c 4716 4c3d
000001d0: ecaa a33c 8c78 9abc 530f 88bd 1ed2 52bc
000001e0: 95d3 36bd 8d36 993d 19e5 dcbc 04b3 3bbd
000001f0: 8ead 0c3c 6a5f 833d 1355 61bd eae0 90bc
00000200: b40c 08bd 8060 a0bd 7170 893d f4d4 3fbd
00000210: d2c6 0b3c 505e 353c 553f 47bd 2079 df3c
00000220: 33f2 263d fd2d 793d a40b 04bc e092 27bb
00000230: d129 a0ba 50f7 ca3c b715 a73c ebaf 703d
00000240: 8c85 79bc 7d74 983d 0f10 f43b 3b60 703c
00000250: dd4d 013c f32a 633d 77fa 1d3c 30b9 9dbb
00000260: d5a3 bbbc fa06 063c a815 0abc c03d 84ba
00000270: 603e 01bd 959b 433d cd0c 28bd cdab 8dbc
00000280: 80ff 9bba 2378 b8bc 8a18 323d c63f cf3c
00000290: 0496 b7bc 60f3 e4bc 4528 303c 8c6b 383d
000002a0: 26b7 72bd 272c c13d fb20 263b 80de c2b9
000002b0: dd9e 0cbb 3c79 613d f9fc 993c 11a2 6abd
000002c0: a315 603d 8385 03bd ff47 f93c c854 353c
000002d0: 6e4f 3dbd 6c66 8f3d e4de e03c 9c54 8dbd
000002e0: c555 813c 1b83 07bd 6498 433d 345b 15bd
000002f0: 0f3d 14bd f313 003d 7d9b 903a a110 81bc
00000300: 99b4 94bc 81a1 a3bb 8263 123d a088 993b
00000310: d469 f43c 2e5e fb3c ca7f f23d e058 543b
00000320: e6dd c43b 7e0b 383d a112 87bc c155 81ba
00000330: 2d38 aab9 decc 1fbb f272 433d eb6b 973c
00000340: 0893 25bc 6089 1b3c bcab 493d b472 98bc
00000350: 044a 75bc 4524 85bd 38be 733c b7d2 98bc
00000360: 259b 19bb f1f5 193d 722f 6a3b 2149 21bd
00000370: 122d 203b e892 b2bc 2adc 15bd 6f47 b13d
00000380: ea43 193d 711a 1c3d 8565 d0bc bdc4 803c
00000390: c62e c83b 4553 863b a651 45bc 40e7 873c
000003a0: 69a8 c2bc 6b46 e8bc 3605 dabc a838 2abd
000003b0: ede6 b43c b341 173c 471e 3b3c c1cb 11bd
000003c0: 4034 5dbd 02f7 37bd 04af 9abc fe12 d2b9
000003d0: aa36 2c3d 5567 443d f5a3 03bd af5b 4d3b
000003e0: 7462 4b3d 42f8 80bc 45d8 8b3d 5a1c 3fbc
000003f0: babf ab3c 1e67 d0bb a13e b0bc 440a d83c

model.0.bias f4 [128]
0.040160213 0.016412502 0.049150117 0.02545253 0.07698915 -0.0011618962 0.060782358 0.06639974
0.043136302 0.03693592 0.051945772 0.055021383 0.064292416 0.065072976 0.06692818 0.03964708
0.07198833 0.06621772 0.09323982 0.048137218 0.041817922 0.029510174 0.06995667 0.13635238
0.04667699 0.043584064 0.024910124 0.037054006 0.101498164 0.025842154 0.055161852 0.058056634
0.06419125 0.06045833 0.04501333 0.052885775 0.024003014 0.0582378 0.077424906 0.05009042
0.060952164 0.057492305 0.06572095 0.04785123 0.043381758 0.072806865 0.009134861 0.025823325
0.06942964 0.012217435 0.05061226 0.0050903764 0.077919886 0.048107572 0.027129203 0.023466201
0.04544593 0.06668923 0.07613345 0.031202419 0.064865306 0.03968561 0.05591378 0.0642311
0.05621001 0.066610545 0.056329425 0.06774062 0.06454119 0.03614858 0.08687594 0.041506678
0.055110905 0.014689453 0.01808097 0.06939029 0.04251436 0.07312915 0.076048516 0.033501584
0.087512895 0.06248422 0.06620508 0.05001572 0.06362223 0.0032256795 0.081953906 0.102297984
0.044196125 0.027987184 0.08393139 0.07397513 0.031035878 0.07638383 0.08103729 0.038355663
0.047728077 0.06367178 0.032245364 0.043653674 0.055581074 0.048913874 0.041021857 -0.0053699077
0.065835305 0.09472484 0.07161054 0.010272737 0.063818716 0.051463533 0.07647042 0.054429475
-0.020489585 0.0062614847 0.072779596 0.015388465 0.12513323 0.08127024 0.053643405 0.051634196
0.081089355 0.05935757 0.06918958 0.069517225 0.010341858 0.08044763 0.005126876 0.0126438625
00000000: 097f 243d 8373 863c a251 493d d381 d03c
00000010: 7dac 9d3d c44a 98ba ecf6 783d 96fc 873d
00000020: b1af 303d 1f4a 173d 17c5 543d 1a5e 613d
00000030: beab 833d fb44 853d a411 893d fa64 223d
00000040: 9e6e 933d 289d 873d 85f4 be3d 882b 453d
00000050: 4549 2b3d 52bf f13c 7145 8f3d f59f 0b3e
00000060: 5f30 3f3d 3485 323d 5110 cc3c f1c5 173d
00000070: 45de cf3d edb2 d33c 65f1 613d cbcc 6d3d
00000080: b476 833d 27a3 773d e65f 383d c19e 583d
00000090: f8a1 c43c c28a 6e3d f390 9e3d 9d2b 4d3d
000000a0: faa8 793d 0d7d 6b3d b598 863d a7ff 433d
000000b0: 12b1 313d c41b 953d 62aa 153c 708b d33c
000000c0: 2131 8e3d a32b 483c cd4e 4f3d 2ccd a63b
000000d0: 7694 9f3d 720c 453d 103e de3c 313c c03c
000000e0: 8325 3a3d 5d94 883d dbeb 9b3d 379c ff3c
000000f0: 1ad8 843d 618d 223d d905 653d 988b 833d
00000100: 783c 663d 1c6b 883d afb9 663d 98bb 8a3d
00000110: 2c2e 843d 8910 143d 03ec b13d e802 2a3d
00000120: f9bb 613d 08ac 703c 8b1e 943c 7f1c 8e3d
00000130: 8a23 2e3d bcc4 953d 53bf 9b3d f538 093d
00000140: f639 b33d 74ef 7f3d 8796 873d 49dd 4c3d
00000150: 5f4c 823d ec65 533b 73d7 a73d 9b81 d13d
00000160: ff06 353d 6145 e53c 38e4 ab3d 4680 973d
00000170: f43e fe3c 206f 9c3d e1f6 a53d d41a 1d3d
00000180: 847e 433d 5a66 823d b713 043d 32ce 323d
00000190: fba8 633d ea59 483d 8906 283d 0df6 afbb
000001a0: a9d4 863d 19ff c13d 8ca8 923d fb4e 283c
000001b0: 63b3 823d 6dcb 523d 869c 9c3d 71f1 5e3d
000001c0: c6d9 a7bc 242d cd3b 780d 953d e61f 7c3c
000001d0: ed22 003e 0371 a63d 30b9 5b3d 617e 533d
000001e0: 2d12 a63d ec20 733d 44b3 8d3d 0c5f 8e3d
000001f0: e570 293c bac1 a43d 5aff a73b 3428 4f3c

model.2.weight f4 [128, 128]
-0.015952125 0.0810334 -0.05303556 -0.04245216 0.051361956 0.021190561 0.077591695 0.059769355
0.004551083 0.06081993 -0.08415956 -0.0130106285 -0.008742914 -0.021647379 -0.06503811 -0.033274148
0.06041675 -0.054989267 0.081301115 -0.04868651 -0.013545558 -0.04225879 -0.075209446 -0.020929627
0.054557793 0.049860813 -0.0036664382 0.07805789 -0.012573108 0.06575852 -0.043500733 -0.077390924
-0.008317418 0.08122789 -0.0740468 -0.051331826 0.004733175 -0.031588547 0.067304336 -0.055543456
-0.081180446 0.07511658 0.062171496 -0.03745011 0.06002318 -0.05911828 0.08648626 0.07061192
-0.06443308 -0.0579646 0.017618671 0.046717606 -0.023629323 0.00925649 0.0038688928 0.06459855
0.06279417 0.029907055 0.01177799 0.006748125 -0.03535775 -0.0704246 0.08141922 -0.03722926
0.0030770078 0.015821181 0.026150241 -0.08204803 0.024482526 0.07841512 0.07860284 -0.040506292
-0.061305087 -0.06916575 -0.007076636 -0.039056685 0.041346915 0.0044123456 -0.013775244 -0.03983834
0.031940363 -0.087414555 -0.018303566 0.057193004 0.07767063 0.031395964 -0.046880107 0.04188446
0.050474964 -0.025707968 0.017075397 -0.020853631 0.046554632 -0.07481899 0.069542356 -0.08591075
-0.026742008 0.0035934895 0.005347252 -0.036015924 -0.04358903 -0.07463592 -0.036216173 0.07665608
-0.014030509 0.039242886 0.06763958 -0.029939983 0.06834062 -0.0338055 -0.029992867 -0.013119668
0.051139705 -0.044832464 -0.013036251 0.027708173 0.022067256 0.019691758 0.010027856 -0.03643967
-0.05249646 0.062109403 0.032756574 -0.06674776 -0.06886937 0.005192198 -0.08734696 0.04041811
-0.045024876 -0.1586299 0.1318395 -0.09402871 0.09521339 -0.14969745 0.038809 -0.10224623
0.13116209 -0.045304872 -0.00935096 -0.0980494 -0.062157676 -0.15728459 0.049847078 -0.035194825
0.0057011214 0.059867937 -0.14115976 0.045834083 -0.08485101 -0.09708627 -0.027663708 0.11976487
0.11251699 0.16264313 0.02488792 -0.16359572 0.15074702 -0.016659593 -0.069117 -0.056199074
-0.03230087 -0.051727686 0.17326525 -0.010931351 -0.1117179 0.054878943 0.06833798 0.045834217
0.013892879 0.11402777 0.114745274 -0.017554456 0.11883484 0.009688636 0.02296199 0.100761846
0.019960215 0.050527938 0.1497223 0.007990368 0.058142897 0.058905113 0.15918966 -0.08209024
-0.01819189 0.08464344 0.10530377 -0.1772585 0.09863329 0.029560886 -0.07467775 -0.11171402
0.17173319 0.059129767 -0.07349855 -0.039334603 0.07426998 0.14026469 0.15950991 -0.08615912
0.18230842 -0.107351646 0.033993218 0.052641694 0.07962923 0.12972248 0.05991572 0.111233205
0.054550998 0.024142185 -0.11373597 -0.09204844 0.1606612 -0.099456534 0.13479109 -0.023441358
-0.10630399 -0.1396722 0.124752544 -0.0451124 -0.07602328 0.08622314 0.037497733 -0.14714432
-0.105877474 0.06319441 -0.092849396 0.06764726 0.09729414 0.0077814525 0.109605625 -0.039809648
0.023306075 0.13850582 0.12440521 0.055767324 0.17795339 0.13145359 0.047815755 0.11256629
0.11162543 -0.012814575 0.13734613 0.11308797 0.08125233 0.040766373 -0.031289093 0.10110512
0.16139354 -0.10765362 0.16891745 0.044044927 -0.026926871 0.131388 0.0074024457 0.08312948
00000000: 08ae 82bc d7f4 a53d d13b 59bd 51e2 2dbd
00000010: ea60 523d d497 ad3c 65e8 9e3d b6d0 743d
00000020: 4021 953b 521e 793d d95b acbd 882a 55bc
00000030: 703e 0fbc d855 b1bc b332 85bd 794a 08bd
00000040: 8e77 773d 6d3c 61bd 3381 a63d 826b 47bd
00000050: 30ee 5dbc 8e17 2dbd 6907 9abd 9c74 abbc
00000060: fe77 5f3d da3a 4c3d a048 70bb d1dc 9f3d
00000070: 70ff 4dbc 67ac 863d d32d 32bd 227f 9ebd
00000080: c845 08bc cf5a a63d d9a5 97bd 5241 52bd
00000090: c018 9b3b fe62 01bd dbd6 893d 8981 63bd
000000a0: ef41 a6bd b9d6 993d 8aa7 7e3d 4965 19bd
000000b0: deda 753d 0226 72bd b51f b13d fb9c 903d
000000c0: 7ef5 83bd 4a6c 6dbd 0855 903c f65a 3f3d
000000d0: 4892 c1bc 88a8 173c 408d 7d3b 3f4c 843d
000000e0: 3b9a 803d a4ff f43c 78f8 403c 601f dd3b
000000f0: 4ad3 10bd c63a 90bd 1fbf a63d b57d 18bd
00000100: a0a7 493b 6c9b 813c 0839 d63c cc08 a8bd
00000110: 948f c83c 1b98 a03d 87fa a03d ede9 25bd
00000120: 0b1b 7bbd c6a6 8dbd 20e3 e7bb e7f9 1fbd
00000130: 625b 293d 7095 903b 90b1 61bc 872d 23bd
00000140: e6d3 023d 6706 b3bd 5cf1 95bc 3643 6a3d
00000150: c711 9f3d 0e99 003d 5b05 40bd 0a8f 2b3d
00000160: d6be 4e3d 8499 d2bc b4e1 8b3c 3cd5 aabc
00000170: 12b0 3e3d b33a 99bd 396c 8e3d faf1 afbd
00000180: 0e12 dbbc c080 6b3b 0038 af3b 6f85 13bd
00000190: 698a 32bd b8da 98bd 6957 14bd ddfd 9c3d
000001a0: 38e0 65bc 26bd 203d 9f86 8a3d b244 f5bc
000001b0: 2bf6 8b3d a377 0abd 9ab3 f5bc e0f3 56bc
000001c0: de77 513d 3fa2 37bd 0096 55bc 40fc e23c
000001d0: 64c6 b43c 9c50 a13c e04b 243c c341 15bd
000001e0: 8706 57bd 6e66 7e3d c22b 063d 0db3 88bd
000001f0: 620b 8dbd 5023 aa3b f7e2 b2bd 768d 253d
00000200: 016c 38bd e06f 22be ef00 073e 2092 c0bd
00000210: 3dff c23d 4a4a 19be 30f6 1e3d 7966 d1bd
00000220: 5b4f 063e 9a91 39bd c534 19bc 20ce c8bd
00000230: 0c99 7ebd 360f 21be 732c 4c3d 7328 10bd
00000240: 79d0 ba3b 1538 753d 2f8c 10be 85bc 3b3d
00000250: 5ec6 adbd 2bd5 c6bd 009f e2bc 4947 f53d
00000260: 4f6f e63d ec8b 263e c0e1 cb3c a385 27be
00000270: 6d5d 1a3e b379 88bc 378d 8dbd 0031 66bd
00000280: eb4d 04bd 69e0 53bd 726c 313e 6919 33bc
00000290: 5bcc e4bd bec8 603d c8f4 8b3d a9bc 3b3d
000002a0: f59e 633c 6487 e93d 92ff ea3d 5dce 8fbc
000002b0: ae5f f33d 16bd 1e3c c91a bc3c 3a5c ce3d
000002c0: 9b83 a33c 62f6 4e3d cd50 193e 08ea 023c
000002d0: 3f27 6e3d 7d46 713d 9d02 233e ee1e a8bd
000002e0: 2907 95bc 8a59 ad3d 81a9 d73d 4183 35be
000002f0: 4000 ca3d ac29 f23c a6f0 98bd 52ca e4bd
00000300: d3da 2f3e 0e32 723d 6886 96bd 521d 21bd
00000310: dc1a 983d 8ca1 0f3e 9156 233e 3174 b0bd
00000320: 0faf 3a3e 2edb dbbd 793c 0b3d d19e 573d
00000330: a614 a33d f8d5 043e 306a 753d 3cce e33d
00000340: de70 5f3d d5c5 c53c 67ee e8bd e483 bcbd
00000350: 5f84 243e deaf cbbd ad06 0a3e 1708 c0bc
00000360: e8b5 d9bd 3b06 0fbe 437e ff3d c8c7 38bd
00000370: 18b2 9bbd c295 b03d 3997 193d 00ad 16be
00000380: 4ad6 d8bd 126c 813d d327 bebd a68a 8a3d
00000390: 2642 c73d 8efb fe3b ea78 e03d 710f 23bd
000003a0: 62ec be3c 78d4 0d3e 29c8 fe3d 476c 643d
000003b0: 6a39 363e c59b 063e 74da 433d 2889 e63d
000003c0: e09b e43d 39f4 51bc 77a4 0c3e aa9a e73d
000003d0: 9f67 a63d a4fa 263d fe28 00bd 3310 cf3d
000003e0: 5944 253e 8079 dcbd b2f8 2c3e 7468 343d
000003f0: be95 dcbc 938a 063e 3790 f23b ca3f aa3d

model.2.bias f4 [128]
-0.04683642 0.07256058 0.0717505 0.06758843 0.09646952 -0.00792269 0.07046622 0.109175354
0.078764714 0.13350333 0.026812889 0.10176261 -0.079601705 0.022697119 0.08557597 -0.08100329
0.051150575 0.10735522 -0.05078711 0.14553355 0.051102895 0.11183003 0.074042045 -0.02568555
-0.07387265 0.1022864 -0.08640382 -0.060310043 -0.06368984 0.07748862 -0.084810406 -0.03957794
-0.048961204 -0.029673498 -0.040916927 0.021556176 0.09669917 0.06209897 -0.012449313 -0.053406972
0.12747684 0.06698224 0.020861723 0.06846896 0.032459322 -0.01790355 -0.05209847 -0.02276083
-0.01876387 0.13508968 0.12003312 -0.042755153 0.112950355 -0.09497044 0.062846534 0.15493798
-0.045741253 0.020805176 -0.07998728 0.06329147 0.07759781 -0.084182315 -0.060452677 0.07439784
-0.0478155 0.09384934 -0.024553983 -0.035953183 0.101372086 -0.070930354 0.0407671 0.11823955
0.047690038 0.13325241 0.022861969 0.055845387 0.08608679 -0.07300337 0.045031585 0.06472546
0.046113446 0.029549502 -0.00541849 -0.08625392 -0.06413921 0.09316787 0.08363506 0.08619055
0.11560636 0.07943025 0.036354937 -0.031033525 0.14699829 0.05576623 0.09146739 0.07653877
-0.019018859 -0.08510431 -0.053327113 0.12272913 0.08788133 -0.088026956 -0.06183589 0.052405484
0.08533545 -0.023239365 0.08159918 -0.06262792 0.09196117 -0.037466094 0.11897108 0.11699625
0.08660904 0.06330428 0.09710006 0.1110753 0.07601369 0.060855523 0.07716679 0.011303342
0.054424062 -0.023416722 0.048911016 -0.0028183695 0.057768118 0.094380215 -0.015569203 0.15943061
00000000: 8cd7 3fbd a49a 943d edf1 923d ce6b 8a3d
00000010: d091 c53d 2cce 01bc 9850 903d 5497 df3d
00000020: 654f a13d 19b5 083e b4a6 db3c ea68 d03d
00000030: 3806 a3bd 4fef b93c 7442 af3d 0ee5 a5bd
00000040: 4483 513d 0edd db3d 2506 50bd bf06 153e
00000050: 4551 513d 2507 e53d 5ba3 973d 816a d2bc
00000060: 8b4a 97bd 887b d13d 7cf4 b0bd aa07 77bd
00000070: d26f 82bd 5bb2 9e3d 14b1 adbd 7a1c 22bd
00000080: 8b8b 48bd d615 f3bc 8298 27bd 9496 b03c
00000090: 370a c63d 7d5b 7e3d 34f8 4bbc 45c1 5abd
000000a0: 4a89 023e fc2d 893d 34e6 aa3c 7439 8c3d
000000b0: 11f4 043d 77aa 92bc 3565 55bd ec74 babc
000000c0: b0b6 99bc f354 0a3e edd3 f53d 0720 2fbd
000000d0: 8452 e73d dd7f c2bd afb5 803d 10a8 1e3e
000000e0: 2e5b 3bbd 9e6f aa3c 5fd0 a3bd f59e 813d
000000f0: 9aeb 9e3d c767 acbd 3a9d 77bd e55d 983d
00000100: 30da 43bd 1534 c03d 6f25 c9bc a543 13bd
00000110: 2b9c cf3d ef43 91bd 67fb 263d 9427 f23d
00000120: a156 433d 5273 083e 0649 bb3c 22be 643d
00000130: 454e b03d ca82 95bd 0a73 383d c88e 843d
00000140: 74e1 3c3d cc11 f23c 978d b1bb e5a5 b0bd
00000150: 6b5b 83bd ccce be3d dc48 ab3d ac84 b03d
00000160: 07c3 ec3d 54ac a23d eae8 143d 053a febc
00000170: b886 163e 216b 643d 4153 bb3d 5cc0 9c3d
00000180: 70cd 9bbc 2b4b aebd 886d 5abd 6959 fb3d
00000190: 20fb b33d 7a47 b4bd a147 7dbd 22a7 563d
000001a0: 5ac4 ae3d 7b60 bebc 791d a73d 1143 80bd
000001b0: 2356 bc3d 0c76 19bd 1ca7 f33d bb9b ef3d
000001c0: 1560 b13d ada5 813d 65dc c63d 727b e33d
000001d0: 11ad 9b3d a443 793d 9f09 9e3d a731 393c
000001e0: c4eb 5e3d 6dd4 bfbc eb56 483d 65b4 38bb
000001f0: 439e 6c3d 6a4a c13d f815 7fbc c741 233e

model.4.weight f4 [128, 128]
-0.0673431 0.16345519 -0.05496948 0.024065558 0.10763425 0.11521515 0.19180518 0.110677496
0.0862878 0.0238334 0.09928709 -0.06611063 -0.051304493 0.09664839 0.019095112 -0.026989702
0.08792312 0.08473524 0.043866053 -0.02624982 0.14212158 0.14760174 -0.13558637 0.013021168
-0.05857293 -0.16461384 -0.0359972 0.023114234 0.038332857 0.19544765 -0.062181015 0.037619617
0.16254339 0.008034827 -0.025077224 -0.16337858 -0.008447906 0.15499853 -0.05109223 0.080781184
0.1379472 -0.026906777 -0.011485769 -0.12282866 0.024414517 0.0826906 0.1240756 0.10449474
0.038705625 -0.007000583 -0.038464926 -0.06683059 0.02738216 0.01518351 0.18514952 0.013579722
0.038372956 0.1992889 0.026584111 0.1651401 0.033830293 0.051078044 -0.033447918 -0.0002944718
0.04885638 -0.12332508 0.0019755925 -0.03141623 -0.03919625 0.06325718 -0.035076607 -0.09714948
0.1384152 -0.10416973 0.14531837 0.12907225 0.16351384 0.063209705 -0.010050567 0.11223406
0.005123509 0.11743315 0.0629012 0.053261355 -0.06840096 0.05565157 -0.066445135 0.06563113
-0.08479144 0.008114199 0.013170124 0.08563249 -0.06704894 0.13353643 0.07666039 0.02532034
0.06214785 0.04171229 0.16700453 -0.050909184 0.09373505 -0.08578089 0.12137386 0.0033504763
-0.018902816 0.022971252 -0.0017021571 0.070180245 0.055221815 -0.009655109 -0.12156237 -0.09727411
-0.039303772 0.121887535 0.01736195 0.030555535 0.13830274 0.08566762 0.15572326 0.028953912
0.13768908 0.0063201487 0.15260632 -0.13341427 -0.0019077845 -0.030431626 -0.027301233 -0.04392422
-0.03762665 0.0065003005 -0.095009685 0.06183855 -0.04968164 0.019590015 0.15374404 -0.009088281
-0.029724928 0.1334097 0.09165112 0.0048273145 -0.025694668 -0.12940122 -0.034568988 -0.030852072
-0.0030270303 0.0751981 -0.03193487 0.0770636 0.092114925 0.025538139 0.09449033 0.07696051
0.017085217 -0.08388413 0.06881999 -0.024394192 -0.07757488 0.21966858 -0.016997695 -0.04529138
0.2298135 0.06775613 -0.08015484 0.17261827 0.0700211 0.08709234 -0.16518207 -0.0011876858
0.11968428 0.08944298 0.12990303 0.17601107 -0.052186165 0.12605232 0.20279294 0.12570035
0.04031711 -0.060981687 -0.0065072305 0.014994033 -0.12634327 0.0070321057 0.107206225 -0.0036772222
0.036930908 0.104482196 -0.06861642 0.026758745 0.027009577 -0.031890456 -0.037856087 -0.054220583
0.034366738 -0.1259092 0.15199889 -0.038385272 0.0017549037 0.024788827 0.167572 0.07789292
0.11313514 -0.038237184 0.00553739 0.21535994 -0.11549783 -0.0141702145 0.036105 0.037460838
0.06612757 0.055595648 0.07743594 0.041150346 -0.030266758 -0.031480495 -0.12419575 0.035897296
-0.02825616 0.17973068 0.034248818 0.086045876 0.00310703 0.09224361 0.021291533 0.18912806
0.02118551 0.058151506 0.021780137 -0.077292174 -0.10643403 -0.079773754 -0.024623446 0.14798081
0.09698319 -0.058255382 0.026271828 0.017013326 0.10953744 0.0834255 -0.05735326 0.01667195
0.05949519 0.07487237 0.077710345 0.163525 0.10738089 -0.01142274 -0.030451873 0.03151475
-0.010389758 -0.053588476 0.048036903 0.1090763 -0.08788763 -0.08586472 -0.0022943616 0.013974302
00000000: 2eeb 89bd cc60 273e ad27 61bd 2225 c53c
00000010: 586f dc3d ecf5 eb3d 9468 443e e2aa e23d
00000020: a8b7 b03d 433e c33c 0857 cb3d 0365 87bd
00000030: a924 52bd 97ef c53d 5a6d 9c3c 8219 ddbc
00000040: 0911 b43d ab89 ad3d e4ac 333d dd09 d7bc
00000050: 5288 113e e924 173e 27d7 0abe bd56 553c
00000060: 2bea 6fbd 8890 28be cd71 13bd 105a bd3c
00000070: ea02 1d3d 6e23 483e 85b1 7ebd 0717 1a3d
00000080: c671 263e 82a4 033c c06e cdbc b74c 27be
00000090: 1669 0abc efb7 1e3e 1646 51bd 9b70 a53d
000000a0: 0842 0d3e 9a6b dcbc cf2e 3cbc 988d fbbd
000000b0: f400 c83c b059 a93d 591b fe3d 5701 d63d
000000c0: ca89 1e3d 2665 e5bb 668d 1dbd 7ade 88bd
000000d0: 8d50 e03c 42c4 783c d697 3d3e 7b7d 5e3c
000000e0: f62c 1d3d 6412 4c3e ecc6 d93c 7d1a 293e
000000f0: a291 0a3d 3637 513d af00 09bd 5663 9ab9
00000100: a11d 483d dc91 fcbd f178 013b 4eae 00bd
00000110: 3f8c 20bd fb8c 813d 7dac 0fbd 4ef6 c6bd
00000120: b7bc 0d3e f056 d5bd 57ce 143e 842b 043e
00000130: 2c70 273e 1774 813d 22ab 24bc f9da e53d
00000140: 1ce3 a73b cb80 f03d 58d2 803d 9428 5a3d
00000150: cd15 8cbd e7f2 633d 6314 88bd 9d69 863d
00000160: 22a7 adbd 6bf1 043c 81c7 573c 1660 af3d
00000170: f450 89bd c6bd 083e 1f00 9d3d 9a6c cf3c
00000180: be8e 7e3d 82da 2a3d 3c03 2b3e 2686 50bd
00000190: 29f8 bf3d e4ad afbd dc92 f83d aa93 5b3b
000001a0: 14da 9abc 352e bc3c ea1a dfba a9ba 8f3d
000001b0: 4530 623d 7630 1ebc b1f5 f8bd a637 c7bd
000001c0: fefc 20bd 2ca0 f93d a63a 8e3c 9a4f fa3c
000001d0: 3c9f 0d3e 8172 af3d eb75 1f3e c130 ed3c
000001e0: 5efe 0c3e 4019 cf3b d544 1c3e c09d 08be
000001f0: a00e faba bf4b f9bc d6a6 dfbc e2e9 33bd
00000200: 671e 1abd 7900 d53b 7094 c2bd 6b4a 7d3d
00000210: fa7e 4bbd 3d7b a03c 146f 1d3e 03e7 14bc
00000220: b181 f3bc 8d9c 083e 95b3 bb3d 732e 9e3b
00000230: a07d d2bc c181 04be 3698 0dbd 7cbd fcbc
00000240: 2461 46bb 7601 9a3d 23ce 02bd 85d3 9d3d
00000250: c0a6 bc3d 5c35 d13c 2584 c13d 799d 9d3d
00000260: 4cf6 8b3c 71cb abbd 7ff1 8c3d 54d6 c7bc
00000270: 94df 9ebd cdf0 603e c03e 8bbc 7483 39bd
00000280: 3b54 6b3e bac3 8a3d 3928 a4bd d8c2 303e
00000290: 3967 8f3d 785d b23d 7d25 29be 1fac 9bba
000002a0: 081d f53d e22d b73d 4d05 053e 3f3c 343e
000002b0: 29c1 55bd dc13 013e f4a8 4f3e 98b7 003e
000002c0: 8e23 253d efc7 79bd 9b3a d5bb 88a9 753c
000002d0: 2160 01be 946d e63b f08e db3d 8dfd 70bb
000002e0: dd44 173d c3fa d53d c486 8cbd 2835 db3c
000002f0: 3043 dd3c 919f 02bd fc0e 1bbd 6716 5ebd
00000300: 23c4 0c3d 57ee 00be 99a5 1b3e e039 1dbd
00000310: cc04 e63a f011 cb3c ff97 2b3e 5386 9f3d
00000320: 65b3 e73d 989e 1cbd fe72 b53b 5187 5c3e
00000330: 208a ecbd 302a 68bc d6e2 133d 8970 193d
00000340: e46d 873d 43b8 633d bc96 9e3d 448d 283d
00000350: fef1 f7bc b1f1 00bd 575a febd 0b09 133d
00000360: 7679 e7bc 520b 383e 7d48 0c3d d238 b03d
00000370: 509f 4b3b 38ea bc3d 956b ae3c c9aa 413e
00000380: 3c8d ad3c 4630 6e3d 426c b23c 5c4b 9ebd
00000390: 16fa d9bd 6c60 a3bd 1cb7 c9bc 4888 173e
000003a0: 1f9f c63d 329d 6ebd 0438 d73c 885f 8b3c
000003b0: 2a55 e03d fdda aa3d 41eb 6abd 9d93 883c
000003c0: 3ab1 733d af56 993d 9a26 9f3d 1973 273e
000003d0: 83ea db3d 7226 3bbc 3576 f9bc 9c15 013d
000003e0: ce39 2abc 977f 5bbd 58c2 443d 6563 df3d
000003f0: 6efe b3bd d8d9 afbd 005d 16bb 79f4 643c

model.4.bias f4 [128]
0.038557358 0.09582506 0.12039829 -0.037465416 0.066103175 0.11749102 -0.03994554 0.015725225
0.0865071 -0.040728055 -0.030837812 0.0313487 0.09247769 -0.013393953 -0.07088673 0.037313487
0.010938286 0.10785622 0.062447373 0.03974979 -0.040116876 0.09458586 0.024590831 0.0928662
0.12710035 -0.029224645 0.034410056 0.03392704 0.054680206 -0.02834325 0.087091655 0.08254201
0.093031205 -0.051109012 0.10140253 0.10076252 0.030735368 -0.0071620317 0.11223848 -0.077745065
-0.057997614 -0.070525445 -0.045832794 0.009847743 -0.0076043815 0.07913649 -0.009359093 -0.07239331
0.06228668 0.12508 -0.019928366 -0.030374167 0.0057160286 0.08090289 0.13981447 0.050226923
0.056852814 -0.08380032 0.06821546 0.014302397 0.07693961 -0.07395006 0.021590903 -0.017479703
0.000986667 -0.055686053 -0.034381513 -0.023886252 -0.024262168 0.007887573 0.028702963 0.086998716
-0.036637455 0.026322525 -0.030914914 -0.033016577 0.054098528 -0.07684235 0.060138278 0.040838707
0.009708148 -0.015043542 0.026165284 0.07698248 0.03839202 -0.020016575 -0.08344181 -0.030667447
0.0791669 -0.052910477 -0.09108434 0.10439719 0.11090391 -0.027917925 0.07963727 -0.011620823
0.07440777 -0.045228034 0.015421587 0.03956483 -0.06566282 0.03874374 0.013116833 0.007498575
0.035777748 0.037057467 0.05427097 -0.059178654 -0.0067200675 -0.070078574 -0.0261207 -0.04369845
0.02241995 -0.083345264 -0.037324794 -0.039820366 0.044127412 0.09735978 0.02615597 -0.065809615
0.03772454 -0.069938116 -0.08727609 -0.07258919 -0.038777243 -0.0048051095 0.027639091 -0.045663647
00000000: 52ee 1d3d ee3f c43d 6193 f63d 5675 19bd
00000010: 1a61 873d 229f f03d ef9d 23bd 30d2 803c
00000020: a22a b13d 76d2 26bd 949f fcbc 7f67 003d
00000030: f164 bd3d 5072 5bbc 102d 91bd 07d6 183d
00000040: 7f36 333c b9e3 dc3d d1c8 7f3d add0 223d
00000050: 9851 24bd 3bb6 c13d b672 c93c a230 be3d
00000060: 9826 023e 8668 efbc 8ff1 0c3d 14f7 0a3d
00000070: 5af8 5f3d 1a30 e8bc 1c5d b23d c90b a93d
00000080: 2587 be3d af57 51bd 21ac cf3d 955c ce3d
00000090: bdc8 fb3c 7aaf eabb 4add e53d ce38 9fbd
000000a0: e88e 6dbd a56f 90bd 2bbb 3bbd 6e58 213c
000000b0: 2d2e f9bb 5012 a23d e256 19bc f242 94bd
000000c0: 5120 7f3d f914 003e d040 a3bc 3fd3 f8bc
000000d0: 864d bb3b 6ab0 a53d 862b 0f3e bfba 4d3d
000000e0: 7fde 683d 819f abbd 8cb4 8b3d 9a54 6a3c
000000f0: 8492 9d3d 2173 97bd 68df b03c 9831 8fbc
00000100: 0d53 813a 0f17 64bd a1d3 0cbd 1aad c3bc
00000110: 74c1 c6bc e13a 013c 7a22 eb3c 622c b23d
00000120: 2811 16bd 56a2 d73c 4641 fdbc 643c 07bd
00000130: 6b96 5d3d 865f 9dbd 8e53 763d 7d46 273d
00000140: ed0e 1f3c 3079 76bc 9458 d63c fea8 9d3d
00000150: f340 1d3d cdf9 a3bc 8ae3 aabd 4c3a fbbc
00000160: 4122 a23d a8b8 58bd 6d8a babd 32ce d53d
00000170: 9721 e33d 22b4 e4bc dd18 a33d 4465 3ebc
00000180: 1a63 983d 0841 39bd d3aa 7c3c bb0e 223d
00000190: 3b7a 86bd c2b1 1e3d fce7 563c 9bb6 f53b
000001a0: b08b 123d 92c9 173d 3d4b 5e3d 5165 72bd
000001b0: 0334 dcbb 5b85 8fbd 14fb d5bc 25fd 32bd
000001c0: 0baa b73c ecb0 aabd e2e1 18bd ae1a 23bd
000001d0: f2be 343d 9064 c73d 0b45 d63c 31c7 86bd
000001e0: 0c85 1a3d b73b 8fbd cfbd b2bd a4a9 94bd
000001f0: e3d4 1ebd 2e74 9dbb 606b e23c ce09 3bbd

model.6.weight f4 [4, 128]
0.06660307 0.12527393 -0.14142907 -0.039464135 0.11929294 -0.16622174 0.027502418 0.15549618
-0.15595777 -0.0560877 -0.06297621 0.089190826 0.1458428 -0.04546019 0.062399518 0.1724157
0.0067217317 -0.0015026432 -0.12223321 -0.17361122 0.0027236114 0.113000296 0.08838603 -0.16099282
-0.1729064 0.005876079 0.13601036 -0.052056327 0.1437047 0.03784596 -0.14067137 0.17295778
0.112335145 -0.0025380035 -0.19557455 -0.19648057 0.06379327 0.017069936 -0.19665717 -0.0006439015
0.001652444 -0.046049494 -0.07633902 0.052317392 -0.1803853 0.15361862 -0.0019488063 0.06814449
-0.17811371 -0.09982474 0.07839293 0.08213541 -0.18065016 0.11182769 -0.1549043 0.10463311
0.09335374 -0.034156743 -0.19319578 -0.15712154 0.078230985 0.07151962 0.0737506 -0.075722426
0.10363821 0.01771366 -0.040221337 0.119155705 -0.04828658 -0.019921774 -0.10833682 0.087055214
-0.022301659 -0.052595004 -0.029035691 -0.060818136 0.1220714 0.09819169 -0.16216932 0.047811847
-0.008155593 0.040060878 0.1336182 -0.089530595 0.026222121 0.06487018 0.031794704 -0.111428276
-0.022836627 0.04330892 0.009655607 -0.14509419 0.013211361 -0.0586652 -0.05557734 0.016192323
-0.12932022 -0.09569069 -0.1505494 0.04933395 -0.03226818 -0.13674389 0.15338574 -0.03641549
-0.10466204 -0.044489663 -0.12903488 -0.055859987 -0.059708495 -0.0029109474 -0.054790743 0.00792333
-0.098891795 -0.02049474 0.029881269 0.028461967 0.09014149 0.10370898 -0.19767623 -0.0073457914
0.110769324 0.21552767 0.060230814 0.0610395 -0.011132567 0.042017788 0.12031152 -0.10201467
-0.11680602 0.12461685 -0.028749334 0.17409398 -0.015542057 -0.11426683 0.024668224 -0.07655255
-0.16129993 -0.012761111 -0.033868685 0.04683704 0.049593147 -0.017770179 -0.021985468 -0.11303561
0.04088 0.00045558097 -0.042326376 0.06744609 0.01450429 0.04879223 0.14878546 0.15174232
0.009420485 -0.034089457 -0.085604995 0.19008437 -0.015666593 0.0248162 -0.233193 0.0029509866
-0.10100149 -0.063291825 0.036949504 0.14186978 0.15393503 0.1576678 0.13822618 -0.07024639
-0.012992184 0.06078106 0.20177649 0.047582112 0.085183 -0.024006067 0.07571499 0.04346185
0.041772954 0.14852388 0.06996573 -0.1067176 -0.1634587 -0.121855825 0.034675516 -0.09636811
0.14540994 -0.04630718 0.012014853 -0.07221437 0.00034219178 -0.028649434 0.15330973 -0.0072460845
-0.14097346 0.072495826 0.057082854 -0.051998228 0.03353358 0.051695097 0.10346031 -0.06355686
0.020698577 -0.22512656 0.06456215 -0.013058387 -0.0018239869 -0.05890768 -0.08991526 -0.12366092
0.14966369 -0.22101127 0.0073363194 0.092036635 -0.20220028 0.073045276 -0.012837006 -0.08011668
0.19658412 0.06734363 0.061796833 -0.19704337 0.13215621 -0.0045346767 -0.18157688 -0.09140982
0.11314794 0.014601517 -0.006011274 -0.13255762 0.011337997 -0.119349256 -0.12280951 -0.06063461
0.1482391 0.19658388 0.0849235 0.05431354 0.030111143 -0.03308895 0.040346853 0.055808406
-0.22261961 -0.06314183 -0.04022417 -0.07512937 -0.13263328 0.0067271017 0.1890586 0.02006827
-0.16785944 -0.14217517 -0.11388915 0.037840866 0.009553244 -0.10776014 -0.053494204 0.14773463
00000000: 3167 883d cf47 003e c8d2 10be 25a5 21bd
00000010: db4f f43d 0836 2abe c04c e13c 643a 1f3e
00000020: 65b3 1fbe 37bc 65bd acf9 80bd aea9 b63d
00000030: d157 153e 7734 3abd a396 7f3d be8d 303e
00000040: f941 dc3b 57f4 c4ba 6855 fabd 24c7 31be
00000050: 9e7e 323b b36c e73d bc03 b53d 4ddb 24be
00000060: 600e 31be 208c c03b 4d46 0b3e 0439 55bd
00000070: 5327 133e 5e04 1b3d 280c 10be d81b 313e
00000080: f80f e63d a254 26bb b244 48be 3432 49be
00000090: 0ca6 823d 40d6 8b3c 7f60 49be 80cb 28ba
000000a0: d296 d83a 659e 3cbd a257 9cbd c34a 563d
000000b0: edb6 38be 334e 1d3e 176f ffba 578f 8b3d
000000c0: 7163 36be ea70 ccbd 798c a03d 9c36 a83d
000000d0: 5bfc 38be ea05 e53d 3c9f 1ebe e249 d63d
000000e0: 3f30 bf3d f1e7 0bbd 1dd5 45be 78e4 20be
000000f0: 9137 a03d e178 923d 8e0a 973d 5c14 9bbd
00000100: 4540 d43d 3d1c 913c 21bf 24bd e807 f43d
00000110: 26c8 45bd fd32 a3bc b2df ddbd 014a b23d
00000120: f8b1 b6bc dc6d 57bd 42dc edbc 701c 79bd
00000130: 9200 fa3d ba18 c93d b70f 26be 5bd6 433d
00000140: 099f 05bc e016 243d 36d3 083e d15b b7bd
00000150: c6cf d63c a8da 843d 2a3b 023d 8234 e4bd
00000160: e113 bbbc b264 313d 8d32 1e3c 9293 14be
00000170: 7774 583c ec4a 70bd 11a5 63bd c3a5 843c
00000180: 856c 04be 7bf9 c3bd 9f29 1abe 6512 4a3d
00000190: a42b 04bd 9706 0cbe 2711 1d3e 6928 15bd
000001a0: 0d59 d6bd cb3a 36bd b821 04be 71cd 64bd
000001b0: e590 74bd 98c5 3ebb 426c 60bd dbd0 013c
000001c0: c887 cabd 96e4 a7bc 90c9 f43c 1229 e93c
000001d0: 1a9c b83d 6065 d43d a36b 4abe f7b4 f0bb
000001e0: 07db e23d 49b3 5c3e 96b4 763d 8e04 7a3d
000001f0: 5f65 36bc d81a 2c3d e365 f63d 11ed d0bd
00000200: ff37 efbd 1e37 ff3d b983 ebbc b145 323e
00000210: 1da4 7ebc ba04 eabd 0415 ca3c 95c7 9cbd
00000220: cf2b 25be fb13 51bc e4b9 0abd 32d8 3f3d
00000230: 2f22 4b3d c492 91bc de1a b4bc 377f e7bd
00000240: c971 273d 0bdb ee39 6c5e 2dbd 2d21 8a3d
00000250: 67a3 6d3c 5dda 473d 375b 183e 5762 1b3e
00000260: 6158 1a3c 63a1 0bbd ac51 afbd 7aa5 423e
00000270: 3a57 80bc 584b cb3c 25ca 6ebe 5765 413b
00000280: dfd9 cebd 259f 81bd 5d58 173d 5046 113e
00000290: 25a1 1d3e ab73 213e 2a8b 0d3e 57dd 8fbd
000002a0: 2bdd 54bc 90f5 783d 7f9e 4e3e 76e5 423d
000002b0: 6d74 ae3d 5fa8 c4bc 7610 9b3d 0e05 323d
000002c0: 1e1a 2b3d a516 183e 314a 8f3d c28e dabd
000002d0: b861 27be 8c8f f9bd ea07 0e3d a55c c5bd
000002e0: 58e6 143e 99ac 3dbd f2d9 443c 21e5 93bd
000002f0: 3468 b339 38b2 eabc 3afd 1c3e 9070 edbb
00000300: 595b 10be b178 943d b6cf 693d 18fc 54bd
00000310: 825a 093d 3dbe 533d 00e3 d33d 192a 82bd
00000320: 1090 a93c 9487 66be 2939 843d d8f2 55bc
00000330: d812 efba 2e49 71bd 7e25 b8bd f041 fdbd
00000340: 7041 193e c750 62be 8265 f03b b47d bc3d
00000350: 970d 4fbe c398 953d 4e52 52bc 3714 a4bd
00000360: 594d 493e 75eb 893d ad1e 7d3d bdc5 49be
00000370: f553 073e a097 94bb 4aef 39be 1235 bbbd
00000380: 1bba e73d 333b 6f3c 39fa c4bb 2fbd 07be
00000390: 02c3 393c 626d f4bd 8d83 fbbd ff5b 78bd
000003a0: fecb 173e 494d 493e 5fec ad3d e077 5e3d
000003b0: a5ab f63c 4788 07bd be42 253d 5b97 643d
000003c0: 65f6 63be 8150 81bd 19c2 24bd 6ddd 99bd
000003d0: 05d1 07be 056f dc3b 9498 413e 3666 a43c
000003e0: 58e3 2bbe 5e96 11be b73e e9bd 06ff 1a3d
000003f0: 3685 1c3c 59b1 dcbd bd1c 5bbd bf47 173e

model.6.bias f4 [4]
0.024249554 -0.019168286 0.038865086 0.053564873
00000000: 00a7 c63c cf06 9dbc ff30 1f3d d766 5b3d
